Pytorch1/adamModel.pt (torch, 212907 bytes, 6 tensors)

fc1.weight f4 [64, 784]
00000000: 0b6b 00bf 31c9 fd3e ce80 013f 65bf 6abf
00000010: 5479 1a40 bdd2 8dbe 2907 a4bd 6fe8 0cbf
00000020: bc93 173e b1ec 993f 9464 d23f 071f 1c40
00000030: e90a ec3e cb22 84be e9bf bc3e 04e6 87bf
00000040: 18b4 8abe 29f3 0ec0 db35 a13f efe0 93bd
00000050: c554 8d3e 56b3 a6be 354c 0b3f af9d 973e
00000060: bd97 f23d e858 ddbe a6b1 ffbe 5ae3 9d3f
00000070: 3635 21bd 3a99 023f 2cd1 7a3f b3e3 5abf
00000080: 2b0e 963d 50ee afbf 0cc3 dcbe 8123 f8be
00000090: f458 933e c1cd 4abe 73f5 9fbf 7e92 4a3f
000000a0: 1802 d0bf e389 453f 0a09 98bd 3b4f 98bf
000000b0: 00f8 143e 5651 70bf 3475 663f 496b 093e
000000c0: 54d2 ed3f a5fd c93f cffb 8a3f 6cc9 64bf
000000d0: 5189 8e3f 207a e9bf 3fe3 4b3f 7eac a1bf
000000e0: 7e3c 7e3f 11ef 7cbe ad52 f43e 8db8 99be
000000f0: fa0d 0abe b3db c23e c6f0 ac3f 744a f13e
00000100: eea3 e9bf 3d3b 983e f9d0 e3bf fda1 74bf
00000110: 0fb6 1abf eec9 033f 25a0 28be e3bb 7e3d
00000120: c14c 833d f6e8 efbc dc7c 1fbf c083 4bbf
00000130: ed77 e13f d6c3 9f3e 7334 203f 4451 313f
00000140: d479 d5be 7f60 5c3f f3c4 84bf 8687 16be
00000150: 9c9a c23e 3192 cd3d 8ade e73f 942d 80bf
00000160: bb17 4e3e e003 35be 13da 12bf 3154 123f
00000170: 5e60 8abf 82f2 8ebf 2b1d cfbf 8f5c 73be
00000180: f2e8 513d 2ce6 09bf c737 75bf cc4d 933e
00000190: c36a 07c0 60f2 13bf 9b07 603f 6728 263e
000001a0: d52d 16bf 2dae bfbe 9dc1 eebe ca2c 423e
000001b0: b338 24be 50c8 03bf 9ca0 08bf 6b6d 5e3e
000001c0: a020 693e 2b9c f1be f78f d1bf 753a a0bf
000001d0: 0e0a b03e f883 b93e 2e3c a4bd dc07 cbbb
000001e0: 12a7 78be 53f1 ad3c 36a3 c1be fd69 a3bf
000001f0: 8d6d ab3f aaf1 e03f a99f 08be 604e 80bf
00000200: c0c6 1ebf cb32 b5be 6cca 2fbf a109 bb3f
00000210: 508d 533e ca64 373e 53de 9b3c fa59 983f
00000220: 4e3c d2bd 186a 853f 2513 273f b3f7 ff3e
00000230: 3fa5 e9be e84a f03f df48 143f d375 093f
00000240: b746 bfbf 4c28 8f3b d46a 09bf a913 01bf
00000250: 4e49 6fbf 9e1f a43f b7c6 14bf f2f3 c2bf
00000260: ccb8 c5bf aad9 aebd 239e a93f 77ad f83e
00000270: 33f8 043f 5807 cf3f 5409 e0bf ba5c 873f
00000280: 2024 c6bb edc8 803e b21b 94be d4b8 d1bf
00000290: 0de1 873f 9b2e 3b3e 14b6 2cbf 54c4 3e3f
000002a0: eb8c 603e 824c e1be 2741 44bf 6905 413f
000002b0: 6eeb 8c3d 3986 05be bc62 afbf d129 c53f
000002c0: 63fe 1a3f d275 683f 340d 413f 5640 5c3f
000002d0: f3b0 1c3f 1352 1dbf 8aaf 43be fe08 e4be
000002e0: 6706 343f 4e73 823e a51c e03f 988b 70bc
000002f0: 10d4 c43f 1bd2 2e3e 5cfb e53e 031c 393f
00000300: 5062 92bf 9516 463d fa1b 6dbe 8857 52bf
00000310: 94d2 4f3f 29d4 fd3e 2b06 803f 53a0 1c3f
00000320: 4dc2 833f 7e52 063e 3769 093d ad12 61be
00000330: 3680 393e dc75 91bf 8c87 afbe c779 41be
00000340: 39fe 8a3d 622b 02bf 4d65 9f3f b752 8cbf
00000350: 5d50 b93f f7cb 063f 5f81 e8be 8b32 da3d
00000360: 4c67 82bf 0034 37bf c398 753f 86d5 fe3e
00000370: 6013 21bf a311 34bf b37f c43e d7c5 19be
00000380: 2800 783f 3b3a 8b3f aa15 533f 65b2 4a3d
00000390: 1848 f2bf a552 22bf e67d acbe c297 5d3f
000003a0: f1fc 13c0 60c2 a2be 5ba4 c03e 8974 053f
000003b0: 00a4 f63c ab23 ab3f 0789 92bf 7a57 0cbf
000003c0: 7dc4 3f3e 58e1 8dbd 447c bfbd eaf2 babe
000003d0: 5a4f 8cbd 7ded 26bf 7bee b1bf 44fe 4fbe
000003e0: c5c3 d8bf 90d3 bbbe 9050 2e3f 6f5c 09bd
000003f0: 277b 803e 98b1 cc3e 040d 803f 73ad 633e
-0.50163335 0.4956756 0.50587165 -0.91698295 2.4136553 -0.27699843 -0.08009178 -0.55042166
0.1480245 1.2025357 1.6436944 2.4393938 0.46102074 -0.25807795 0.36865166 -1.061707
-0.27090526 -2.2335913 1.259456 -0.07220637 0.27603737 -0.32558697 0.5441316 0.2961249
0.11845348 -0.43231893 -0.49940223 1.2335007 -0.039357387 0.51015055 0.9797542 -0.8550369
0.07326921 -1.3744602 -0.4311756 -0.48464587 0.28778803 -0.19805051 -1.249678 0.7912978
-1.6250639 0.77163523 -0.07423599 -1.1899179 0.1454773 -0.9387411 0.9002259 0.13419832
1.8579812 1.5780531 1.0858096 -0.89369845 1.1135656 -1.8240395 0.79643625 -1.2630765
0.99311054 -0.24700572 0.47719327 -0.30023614 -0.13481894 0.38058242 1.3510978 0.47127116
-1.8253152 0.29732695 -1.7798148 -0.95559675 -0.6043405 0.51479995 -0.1646734 0.0621909
0.06411124 -0.02928589 -0.62299895 -0.7949791 1.7614723 0.31204098 0.6258003 0.69264627
-0.4169451 0.8608474 -1.0372604 -0.14700136 0.38008583 0.100376494 1.8114789 -1.0013909
0.2012624 -0.1767726 -0.57364005 0.57159716 -1.0810659 -1.1167758 -1.6180776 -0.23765777
0.051247545 -0.5386684 -0.95788234 0.28770292 -2.1158912 -0.5779171 0.87511605 0.1622635
-0.58663684 -0.37437573 -0.4663209 0.18962398 -0.16037254 -0.5147753 -0.5337007 0.21721427
0.22766352 -0.4718946 -1.637206 -1.251784 0.3438267 0.36233497 -0.08019291 -0.0061960053
-0.24282482 0.021233236 -0.37819833 -1.276672 1.3392807 1.757375 -0.13342156 -1.0023918
-0.6202202 -0.35390314 -0.68668246 1.4612314 0.20659375 0.17909542 0.01902691 1.1902459
-0.102654085 1.0423002 0.6526359 0.49993667 -0.45633885 1.877286 0.5792369 0.5369541
-1.4943455 0.0043688174 -0.5367863 -0.50420624 -0.9347123 1.2822149 -0.58115715 -1.5230696
-1.544702 -0.0853761 1.3251384 0.48569843 0.5194122 1.6174116 -1.7502847 1.0575173
-0.006046787 0.25153294 -0.2892738 -1.638453 1.0615555 0.18279497 -0.6746533 0.7451832
0.21928756 -0.44003683 -0.76661915 0.7539888 0.06880842 -0.13039483 -1.3702006 1.5403386
0.60544413 0.9080478 0.7541077 0.8603567 0.61207503 -0.6145336 -0.19109932 -0.4453811
0.7032227 0.25478595 1.7508742 -0.014681719 1.5377216 0.17072336 0.44918334 0.7230837
-1.1436253 0.04836138 -0.23155203 -0.8216481 0.8118069 0.49575928 1.0001882 0.61182135
1.0293671 0.13117406 0.033547606 -0.2197978 0.18115315 -1.1364093 -0.34283102 -0.1889411
0.067867704 -0.50847447 1.245279 -1.0962743 1.447765 0.52654976 -0.45411202 0.106541716
-1.0187774 -0.7156372 0.9593622 0.4977228 -0.6292019 -0.7033941 0.38378677 -0.15016876
0.9687524 1.0877146 0.8245493 0.049486537 -1.8928251 -0.63407356 -0.33689803 0.8655969
-2.3123133 -0.3178892 0.37625393 0.52130944 0.030107498 1.337026 -1.1448067 -0.5482098
0.18727298 -0.069277465 -0.09349874 -0.36513454 -0.068510726 -0.6520613 -1.3900903 -0.20311838
-1.6934744 -0.36684847 0.6809168 -0.033535417 0.25093958 0.39979243 1.0003972 0.22234134

fc1.bias f4 [64]
00000000: aa9a a1be 2ab7 8c3e 7bf5 d9be e9ea 94bd
00000010: 59d4 f6be 94d9 2fbe 49cc aabe 682a c6be
00000020: cc98 e6be 4c41 e7bd 8aed 71be 7244 92be
00000030: ac7e a7be 96df c3bd d053 ccbe 2e89 d2be
00000040: 891c d6be ec3c 84be 3ec3 f1be 009f 80be
00000050: 9af0 c4be 17c5 d9be 46bb 9ebe 97ab 90be
00000060: 5736 a6be 2128 cebe 7498 abbd e685 5dbe
00000070: 2d7d 86bd 65f0 f4be b969 bcbe e0e7 aebe
00000080: 22d5 85be 569c 7fbe b608 61be 0c8a 793e
00000090: bc77 9dbd 706a 4dbe 28ae cdbe 7a48 bbbe
000000a0: 20a7 64be e372 8cbe 0aa3 7abe 75ce 6ebe
000000b0: 3c22 1fbd 0794 b1be ecaa 91be 0411 a2be
000000c0: 4852 c1be 3ea7 e3bc 9358 47be 9644 103f
000000d0: 6ec8 abbe 0112 96be 0d59 6dbe f79d 08be
000000e0: b9e9 d5be e5fc 163e 961a 123f 14fb 1bbe
000000f0: 4e85 5bbe 06d7 acbe c580 99be adc1 85be
-0.31563312 0.27483493 -0.425701 -0.07271368 -0.48208883 -0.17172843 -0.33358982 -0.38704228
-0.4503845 -0.11291751 -0.2362577 -0.28567845 -0.3271383 -0.0956413 -0.39907694 -0.41120285
-0.41818646 -0.2582773 -0.4721927 -0.25121307 -0.38464814 -0.4253318 -0.31002253 -0.28255913
-0.32463333 -0.4026499 -0.083786875 -0.2163311 -0.06566844 -0.47839656 -0.3679941 -0.34161282
-0.2613917 -0.24961981 -0.21975979 0.24369067 -0.07688853 -0.20060134 -0.40171933 -0.36578733
-0.22329378 -0.27431402 -0.24476257 -0.23320945 -0.038851008 -0.34683248 -0.28450716 -0.31653607
-0.37758088 -0.027789708 -0.19467382 0.56354654 -0.33551353 -0.2931061 -0.23178501 -0.13341509
-0.4177988 0.14744909 0.57071817 -0.15232497 -0.2143757 -0.337578 -0.29981056 -0.26124325

fc2.weight f4 [32, 64]
00000000: 7706 7c3f cb0c 5f3e e673 513f a71a b0bf
00000010: 506a 8c3c 217e 443f 1af7 2fbf f7a6 8ebe
00000020: cc67 ffbe d758 9d3f db15 49bd bb66 b5be
00000030: e3ad 81bf d77c 88bf 7334 693f 81c3 88bf
00000040: df60 503f 40aa 93bf 1e04 a83e 02e7 15bf
00000050: 054e 983f 6373 89bf 77c3 55bf 72f3 09bb
00000060: 6dde c43f 9866 56bf 2c3b b4be 2d89 3cc0
00000070: 30bf 38bf 7e06 013f 904e 1f3a 4d81 373e
00000080: 66ba b5bf 6855 15bf d20b ebbd d16e 7dbe
00000090: f3cd bebe 9f70 d1be e892 fd3e af2d ad3e
000000a0: bdff 073f 175f 063f cf48 a4bd ad1f e13e
000000b0: b961 85bf 3640 00c0 bb51 1ebf 397d a43f
000000c0: 4a8d 953f 0653 283f 33af cabe 3d74 56bf
000000d0: b6a7 8abf 25ab 5ac0 1fb2 ab3f aca8 a0be
000000e0: aab9 af3e 922d 38bf 7878 97bf 6923 76bf
000000f0: 1936 72bf 3737 d5bf fda1 c8be 6faf ecbb
00000100: 9ef1 903f 0dae 80be b61c f1bd 8baa 81be
00000110: 39ca 1f3e e87f 703f 3be4 3b3e acd5 80bf
00000120: 073e f63e 07c5 1cbf 68f9 1fc0 9e00 663f
00000130: 6297 b83f 94a1 033f 2b78 4fbf b2a7 133f
00000140: c306 8ebf 792f 7b3e 817d 0cbf fd83 0c3d
00000150: 7948 ad3e 477e c13e c7c5 df3f 9682 08c0
00000160: 499c f73f 55df 2a3f 9079 83be e3fc 79bf
00000170: ab6b 23be bbb2 ea3e b680 03be 7284 e8be
00000180: 87ed 9fbf e572 67bf 0cec e3be 54ee a9bf
00000190: 2682 83bf e2e8 aebf 7d46 5dbf dd4c 0d3f
000001a0: 2837 223f 4e59 b43f 4887 be3e 12f1 bebf
000001b0: 0a69 8d3e 2019 16bf de3c cdbf 911b cf3e
000001c0: 4989 843f dec5 0fbf 2532 36bf 9126 22bf
000001d0: 306b a8bd 0293 6ebf 00d7 b73f 55a1 00bc
000001e0: 7002 2fbf 762c 15c0 6acc d9bd ac2a e0bc
000001f0: f30c b73e a8e8 4d3e a93a 8fbe 6b23 123f
00000200: df2f 0cc0 997f 81bf a3df b13f be4f 453f
00000210: 615e 0fc0 c9d8 163f 1ccf a4bf 9bdd 8ebf
00000220: 66ca a23e 7266 4fbf 6632 90be 661b 0c3f
00000230: 2578 163f 319d b1be e366 293f bdce f3be
00000240: 564c 213f 1bdc aabf 2d8e b7bf 188c f3bf
00000250: 5d69 8fbe ec72 57bf b2c0 983e 4eaa b4bf
00000260: fa7a 4d3f fbe9 52bf 327b d03e 0b54 c8bf
00000270: 259d 6ebe 67cc 23bf f97f 29be b673 dcbf
00000280: 8970 2a3f 8ab2 74bf 7e0d 4dbf 9d50 92be
00000290: 11de bfbe e09b be3d 0f8c 853f 7005 10bf
000002a0: 195d 953e ef6e b3bf 8f31 e73e b2be e9bf
000002b0: 13ae 413f 6b43 a7bf 5e51 babf b9e5 2ebf
000002c0: 8747 de3f 12e7 3c3f 9db9 46be 939f 0bbf
000002d0: e350 a53f 4f9b 8fbf ad00 afbb 1559 a03f
000002e0: 5842 f0be 40a6 203f 87dc 62bf f53a 8cbe
000002f0: c594 6d3f 81ac 13bf ce82 583e f0a1 173f
00000300: 1553 8a3d a340 093e ee9b 173f 63ee 4cbf
00000310: d01b cbbf b6e0 01bf 91d7 d23e 581e 5d3f
00000320: 665c 7dbf 8f37 9abe 8e48 003f 2523 adbf
00000330: c1ae 2c3d 24b4 69bf c551 ea3e 2151 863f
00000340: a8cc 3d3f 28b0 20be ac2b d53e dfd3 4dbf
00000350: 41f3 86bf 0fb2 9fbe 1b7e 31bf a873 3bbe
00000360: 52be db3f 162a 383f 3f35 243f 7ae7 edbf
00000370: 950b 4a3e d87e cebe c62b d83f 7fbc cabe
00000380: e32c 823f 5161 4dbe 2bf3 0fbe 07a3 23bf
00000390: 0fc9 2e3d 4dcd e4be 1520 8ebf 6835 78bf
000003a0: 05f8 b73f 5aa3 80bf 8589 a7bd a2fa debc
000003b0: 45bf 1abf 987f c1bc a340 37be 7018 a13f
000003c0: 820e 1bbd cae4 8e3f 943d 05bf 01db 76bf
000003d0: 590c 7e3f 31e7 a8be b453 93bf 9821 aabf
000003e0: e6a5 373f 0fc2 34bf 546d 1b3e 5d6f c73c
000003f0: 0f5e 32bf 8084 3d3f 2f03 c4bf 667a 84be
0.98447365 0.21782224 0.8181747 -1.3758134 0.017140538 0.7675496 -0.6873642 -0.2786176
-0.49883878 1.2292737 -0.04909311 -0.3542994 -1.0131191 -1.0663098 0.91095656 -1.0684663
0.81397814 -1.1536331 0.3281564 -0.58555615 1.189881 -1.0738338 -0.8350138 -0.0021049646
1.5380379 -0.83750296 -0.35201395 -2.9458725 -0.7216673 0.5040053 0.00060770754 0.17920418
-1.4197509 -0.58333445 -0.11476864 -0.24749304 -0.37266502 -0.40906236 0.49526143 0.33823916
0.531246 0.52488846 -0.080217 0.4396948 -1.0420448 -2.0039191 -0.6184346 1.2850715
1.1683743 0.65751684 -0.3958679 -0.83771116 -1.0832431 -3.4166958 1.3413733 -0.31378686
0.34321338 -0.71944535 -1.1833639 -0.9614778 -0.94613796 -1.6657475 -0.39186087 -0.0072230618
1.1323736 -0.2513279 -0.11773054 -0.25325426 0.15604486 0.9394517 0.18348782 -1.0065207
0.48094198 -0.6123814 -2.4995975 0.8984469 1.4421198 0.51418424 -0.81042737 0.5767776
-1.1095814 0.24529828 -0.54879004 0.03430556 0.33844355 0.37791654 1.7482232 -2.1329703
1.934457 0.6674703 -0.25678682 -0.976515 -0.15959041 0.45839486 -0.12842068 -0.45413548
-1.2494363 -0.9040969 -0.44516027 -1.3275857 -1.0274093 -1.366482 -0.8643568 0.5519541
0.6336541 1.4089754 0.37212586 -1.4917319 0.276192 -0.5863209 -1.60342 0.4045072
1.0354396 -0.56161296 -0.71170264 -0.633401 -0.082235694 -0.93193066 1.4362488 -0.007850965
-0.68363094 -2.3308387 -0.10634692 -0.027364098 0.35752067 0.20108283 -0.27974442 0.57085294
-2.1904218 -1.0117065 1.3896374 0.770748 -2.2401354 0.5892454 -1.2875705 -1.1161379
0.31795043 -0.81015694 -0.2816345 0.54729307 0.58777076 -0.3469024 0.6617262 -0.47618666
0.63007104 -1.3348421 -1.4340264 -1.9027128 -0.28010073 -0.8415973 0.29834515 -1.4114473
0.8026577 -0.82388276 0.4071899 -1.5650648 -0.23302133 -0.6398377 -0.16552724 -1.7222812
0.66577965 -0.9558493 -0.8009871 -0.28577128 -0.3747411 0.093070745 1.0433367 -0.56258297
0.2917259 -1.4018229 0.45154998 -1.826132 0.7565624 -1.3067449 -1.4556081 -0.6831928
1.7365578 0.73790085 -0.19406743 -0.54540366 1.291531 -1.1219271 -0.0053406567 1.2527186
-0.46925616 0.6275368 -0.8861775 -0.2738873 0.9280513 -0.57685095 0.21143648 0.5923147
0.06754128 0.13403563 0.59222305 -0.8005125 -1.5867863 -0.50733507 0.4118009 0.86374426
-0.98969114 -0.30120513 0.5011071 -1.352635 0.042158846 -0.912905 0.4576551 1.0493509
0.74140406 -0.15692198 0.41634881 -0.80401415 -1.0542985 -0.31190535 -0.69333047 -0.18305838
1.7167456 0.7193922 0.6414375 -1.8586266 0.1973098 -0.4033115 1.6888359 -0.39596936
1.0169948 -0.20056655 -0.14057605 -0.63920635 0.042672213 -0.44687882 -1.1103541 -0.9695649
1.4372565 -1.0049851 -0.08180527 -0.02721912 -0.60448104 -0.023620412 -0.1789575 1.2585583
-0.037855633 1.1163571 -0.52047086 -0.96427923 0.9923759 -0.32988885 -1.1509919 -1.3291502
0.71737516 -0.7060861 0.15178424 0.024345094 -0.6967477 0.74030304 -1.5313472 -0.25874633

fc2.bias f4 [32]
00000000: baf7 e0be c93a c8be e7c2 09bf e984 49be
00000010: 3005 0fbf 59cc 43be 8d5c 13bf a868 f9be
00000020: 08ff a7be 62ca 593d 7c61 3cbe 0f06 acbd
00000030: 523d 33bf c2aa ebbe 5f60 dfbe 912f 46bf
00000040: 6dde 60bf ac48 f2be 4bf6 d7bd 0db2 70be
00000050: 2917 05bf c09d c9be 4336 fabd 9db7 ccbe
00000060: 4b39 623e 467c c6be 227e 8dbe b1ac 2fbf
00000070: 9e4c dabe bfc2 47be da77 3dbe 7da9 dcbe
-0.43939 -0.3910735 -0.5381302 -0.19679607 -0.5586729 -0.19120921 -0.57563096 -0.4871266
-0.3281176 0.053171523 -0.18396562 -0.08399593 -0.7001544 -0.46028715 -0.43628213 -0.7741633
-0.87839395 -0.4732107 -0.105450235 -0.23505421 -0.51988465 -0.39378166 -0.12217381 -0.39983836
0.22092168 -0.38766688 -0.27635294 -0.6862288 -0.4263658 -0.19507883 -0.18502751 -0.4309806

fc3.weight f4 [10, 32]
00000000: 7e13 55bf bcfc a73f e884 913f 155d 9bbf
00000010: 9cb5 2d3e 29e8 f1bf fed7 e73e 620a 303f
00000020: fbeb 4cbd 8902 853f 8abe 8d3d 39ec b23d
00000030: 8d5b a63d 489b fa3d afe3 8a3e 85ac 3ebf
00000040: aaba ecbe f9d0 24bf 4a51 c4bc 1361 273f
00000050: 1cc5 c4bf 0b06 c93c 14fc ea3e dce6 17bf
00000060: 6226 d73e 121f 49be 66f8 973f 7752 613e
00000070: 33fb 6d3f cd4e 723f 43e8 253f 7481 7dbd
00000080: 8c55 933f 7c3b 0ebd e116 30be f97d a3be
00000090: e67d 09bf c510 0540 1992 9a3e 7f67 703f
000000a0: 469e 0bbf f535 07c0 1876 a5bd 6a23 033e
000000b0: 4831 91bf 7600 08bf d025 f4be cba9 cb3e
000000c0: 9e2c 913e 988f af3f 3a64 443d 8830 96be
000000d0: d994 103f faf7 97bf 9233 ccbe 8155 4940
000000e0: 0218 7f3f bc6b 27bf eaef 96bf 4072 c5be
000000f0: fead 163f 5e4c eabe 86bf fd3e aa6e 38bf
00000100: f0d5 89bf 52e6 0fbe f147 7f3f 3af2 4dbf
00000110: 37de a93e a7ff eebf ff32 a53e 6906 bbbe
00000120: 4f43 27be be33 6e3f a51a 79bf 8651 c3bd
00000130: a26e 84be 62f2 b63f ae17 78bf 6e3c 273d
00000140: 58a9 d03f 0ca1 a03f ebc4 78bd 1cf4 e9be
00000150: 0ee0 8ebe e150 6c3f 6946 603e 2012 853e
00000160: 125a 7b3e f071 c93e f765 86bf bf94 e23e
00000170: 4cf4 853f 373d 2cc0 8e65 1abf 392f 5fbe
00000180: 5e2a ddbf 3429 443e 7611 b1bd fc91 8abf
00000190: 2ff9 bc3e 928d df3f 062d b93e 8ce6 f93b
000001a0: 1f62 1f3e a387 9d3e ae02 15bf 1496 bb3b
000001b0: 800c 493f 2dd3 56be 19d7 aabe 6da4 61bf
000001c0: 04bf 4dbf 93cf 583f e0d0 1d3d 3776 fe3e
000001d0: 6561 2cbf c8c6 95bc 33bf ce3e 57e9 f6be
000001e0: d9d5 2b3f bfac 613e 5f0f 4d3f ba2c d03b
000001f0: 0fd5 513f 34c3 083f 0786 283f 2d61 49bf
00000200: 025e 2bc0 576e 503d 16ac 41be 1332 273f
00000210: 223b 90bd 6c19 cd3e d4f6 cd3e 1879 ee3e
00000220: 670c b83d 6027 1ebe 2bfc 1abf 102a 79bc
00000230: 33c3 813f 4286 903f f4c9 d7be 9ce9 d5be
00000240: 626c 423f 055b 91bf 0539 00bd ccd0 93be
00000250: 682e 633f b7ca 84be 4df2 423d 4ecc 973f
00000260: 6a2f 91be 6676 a6be d106 a73f eb31 943f
00000270: a881 883f 77d2 ac3e ad26 b0be dd94 793e
00000280: 7a6e edbf 489a 9fbe 36a7 71bf 2073 973f
00000290: 0255 7e3f ebcc 4e3f 5d3e 633e 1ef4 87bf
000002a0: 99a7 193f 6b29 0d3e 7366 93be 8cfd d7bf
000002b0: d1c7 133f ad34 ddbd ffae 3abf 7be9 58be
000002c0: 3973 38bf 39a0 49be 0e83 1ebf 8f41 243f
000002d0: f86a ca3e 3b5b 1b3f bf31 213f c565 1abe
000002e0: 9146 793f afad fe3d f611 bb3e 58f2 dfbe
000002f0: 9166 0d3f c414 3d3e 6efe bc3e 4889 523f
00000300: a5a1 2440 a0f5 9f3f b888 753f c98f 5fbd
00000310: 9d89 533e 202c 04bf a9d3 e03e 87c1 aebf
00000320: 5020 11c0 3942 7f3f b6c6 e9bd ce22 c83c
00000330: 596e de3e 0acb 043e b407 213e d4d9 51bf
00000340: 037c 06be 8831 2f3f 4087 5b3d 8b34 2c3f
00000350: 20c3 90bd 7bc5 063f fe57 b53e 9116 b8bf
00000360: 576d 283e 5aaf 323e 39b3 093f 9603 043f
00000370: 3f45 803f 792e c53f 758f 0e3f d1a9 83bf
00000380: ab1e dd3e 8a6f 113f 189d 6d3d 1588 af3f
00000390: bd64 833f 614d 0840 3ac6 31bc 5124 cd3e
000003a0: 9902 fa3e fbde 793f 430a 88be 4435 9bbc
000003b0: 858b 35be b302 333f d719 07c0 f4b8 47be
000003c0: 7852 953f df30 393d 73e7 49bf 763e 333f
000003d0: cb07 51bf 6e46 f73e 130a 043f 66ca 4e3f
000003e0: a06f a43f 8586 f2bd 2427 2ac0 6e77 6ebf
000003f0: 43c0 23bf c3c1 2d3e 6895 1fbf 8ccc 39bf
-0.8323287 1.3124003 1.1368685 -1.2137781 0.1696381 -1.8898975 0.45281976 0.6876584
-0.050029736 1.0391399 0.06921108 0.08736462 0.08122931 0.12236649 0.27126834 -0.74481994
-0.46236163 -0.64381367 -0.023964543 0.653825 -1.5372653 0.024539014 0.45895445 -0.5933664
0.4202147 -0.19640759 1.187268 0.22004114 0.92961425 0.9465149 0.6480753 -0.061891034
1.1510482 -0.034724697 -0.17196228 -0.31932047 -0.5370773 2.0791485 0.3018959 0.9390792
-0.5453838 -2.1126683 -0.08079165 0.12806478 -1.1343164 -0.53125703 -0.476851 0.3977798
0.28354353 1.3715696 0.047947146 -0.293339 0.56477123 -1.1872551 -0.39883095 3.1458437
0.9964601 -0.65398765 -1.1791966 -0.38563728 0.5885924 -0.4576139 0.49560183 -0.7204386
-1.0768414 -0.14052704 0.9971915 -0.80447733 0.3317735 -1.8671769 0.3226547 -0.36528328
-0.1633427 0.930477 -0.9730628 -0.09537034 -0.25865656 1.4292719 -0.9691113 0.040829115
1.630168 1.2549148 -0.06073467 -0.45694053 -0.27905315 0.9231091 0.2190186 0.2599039
0.24546078 0.3934474 -1.0499867 0.4425411 1.0465178 -2.6912363 -0.6031121 -0.21795358
-1.7278554 0.19156343 -0.086459085 -1.0825801 0.36908862 1.7465079 0.36167163 0.0076263603
0.15564774 0.30767545 -0.58207214 0.005724678 0.785347 -0.20978995 -0.3336723 -0.8814152
-0.8036959 0.84691733 0.038529277 0.49699566 -0.6733611 -0.018283263 0.40380248 -0.482249
0.6712318 0.22038554 0.8010158 0.006352988 0.81965727 0.53422856 0.6582951 -0.78663903
-2.6776128 0.05088648 -0.18913302 0.6531078 -0.07042529 0.40058458 0.40227377 0.46576762
0.089867406 -0.15444708 -0.6054103 -0.015207782 1.0137695 1.1290972 -0.42146266 -0.41779792
0.7594663 -1.1355902 -0.031304378 -0.28870237 0.88742685 -0.2593591 0.047594357 1.1859224
-0.28356487 -0.32512206 1.3048955 1.1577734 1.0664568 0.33754322 -0.34404507 0.24373193
-1.854934 -0.31172395 -0.9439577 1.1832008 0.9934846 0.8078143 0.22191758 -1.0621374
0.6002136 0.13785331 -0.287891 -1.6874251 0.5772677 -0.10801063 -0.7292327 -0.21182816
-0.72050816 -0.19690026 -0.61918724 0.64162534 0.39534736 0.6068608 0.6296653 -0.15077884
0.973733 0.12435471 0.3653714 -0.4373958 0.5523463 0.18464953 0.36912864 0.82240725
2.572366 1.2496834 0.9591174 -0.054580484 0.20657964 -0.5162983 0.43911484 -1.365281
-2.2675972 0.9971042 -0.11414854 0.024430659 0.43443564 0.12968078 0.15725595 -0.81973004
-0.13133244 0.68434954 0.05359578 0.67267674 -0.07068467 0.5264508 0.35418695 -1.4381887
0.1644796 0.17449704 0.537891 0.5156797 1.0021132 1.5404807 0.5568765 -1.0286199
0.4318746 0.5681082 0.058011144 1.3713404 1.0265118 2.1297228 -0.010850484 0.4006677
0.48830107 0.97605866 -0.2657033 -0.018946297 -0.17729004 0.69925994 -2.1109521 -0.19504148
1.1665792 0.045212623 -0.7886879 0.7001718 -0.81652516 0.4829592 0.5157787 0.80777586
1.2846565 -0.11842064 -2.658639 -0.93150985 -0.63965243 0.16968445 -0.6233735 -0.7257774

fc3.bias f4 [10]
00000000: 1fe9 e93e a553 62bf 8143 55bf f9ea 00be
00000010: 3c07 96bf 9882 963f dc8b 0a3f 2d51 033d
00000020: b92f 2640 abd1 aabe
0.4568567 -0.8840888 -0.8330613 -0.12589635 -1.1720958 1.1758604 0.5411966 0.032059837
2.5966628 -0.3336309
