Pytorch1/dropoutBatchnormOptimizedModel.pt (torch, 217423 bytes, 14 tensors)

fc1.weight f4 [64, 784]
-0.0037697465 0.0044203 0.038013536 0.027676025 -0.014797492 0.00040003733 0.04508552 0.026392141
-0.0014485264 0.022345059 -0.0009966329 0.008012669 0.0018367224 -0.0026820705 -0.010762242 0.0055017015
0.00023476503 -0.0026121342 0.008123745 0.038462665 -0.0025980072 -0.0006018281 0.026064904 -0.006161508
-0.005229138 0.036143735 -0.016100632 0.028224133 0.024802256 -0.0034693552 0.004679903 -0.004605626
-0.025928572 0.0045721657 -0.013879173 -0.00044694933 -0.031921726 0.029987678 0.019185975 0.020795692
-0.0060324087 -0.02483925 0.01570101 0.008005679 -0.008474917 0.011087749 -0.016152037 -0.0307325
-0.017848348 -0.003996953 -0.0024309007 0.019046796 0.007857402 -0.0070016943 -0.0038988255 0.013173229
0.03849083 0.006374019 -0.0050544897 0.03666782 0.0055285236 -0.014061839 0.0005359198 -0.021346899
-0.017325323 0.012435283 0.014352363 -0.00891326 -0.046272483 -0.025272816 -0.017797051 -0.008947583
0.012183526 -0.004156319 -0.015512641 0.018468719 -0.019697232 0.012117167 -0.03606941 0.024867475
-0.018803129 0.005704079 0.041253258 0.003656539 2.6175667e-05 0.009321947 0.0017952124 -0.028042415
-0.011919502 -0.020042887 0.016508762 -0.035771713 -0.027746333 0.015860723 0.025362521 -0.014047364
-0.005625989 0.031613104 -0.013962568 -0.0015971771 -0.015988898 -0.007834379 0.017907338 -0.022771033
-0.016508218 0.0025615452 -0.010329719 0.019378323 -0.02523756 0.018316042 -0.00831418 0.028545637
0.02754263 -0.018387306 -0.0019913237 -0.022590952 0.016502133 -0.04262603 -0.033957135 0.009209343
0.0072869086 -0.022427347 0.021582896 0.004952718 0.011252414 -0.002952704 -0.008205919 -0.023356514
-0.005481476 -0.019367946 0.0039763744 0.0062976237 -0.009199045 -0.035798747 -0.03771224 0.010788375
0.016412148 0.038025245 0.0112753585 0.002503901 -0.026582768 -0.007981352 -0.025088007 -0.02306392
-0.04060522 -0.04533115 -0.0307037 0.005876895 0.02526718 0.01527491 -0.02158177 -0.012549704
0.0031569242 0.007790101 -0.0073415837 -0.007890344 -0.008821587 -0.027232073 -0.017410807 0.012807054
-0.025936605 -0.004779602 0.0004231107 0.02248507 -0.025857989 0.03739212 0.0040756953 0.025102776
-0.011403005 -0.009325197 -0.010933089 0.012927334 -0.04033963 -0.031145448 -0.03139028 -0.0051004286
-0.02347643 0.021240322 -0.0144253615 -0.020425389 -0.024067936 -0.010513227 0.025626592 -0.006751811
-0.009264588 -0.016005713 0.0043188585 0.014767579 0.027796017 0.011153209 0.010157969 0.015487964
0.004900899 0.040507678 0.005704118 -0.015405921 0.02417795 -0.017719565 -0.015165397 0.0063634105
-0.008824601 -0.050747782 -0.009296739 -0.00055050384 0.010833224 -0.00043890128 0.017836414 -0.00040437374
-0.021012489 0.027255869 0.018042926 0.021005768 -0.016893946 -0.029444205 -0.0080100065 -0.0021527233
0.018636428 0.03907643 -0.003734586 -0.0010843552 -0.0077481475 -0.033703193 0.039810132 -0.022362882
-0.010520983 0.024311187 -0.014151259 -0.0025938237 -0.025825892 -0.05369539 -0.00734338 -0.006455083
-0.035269447 0.009627736 0.0032370617 0.01662031 -0.004330044 0.00010089517 0.04197894 -0.026378533
-0.0040185596 -0.033235144 0.0055099004 0.0149809355 0.030467423 0.000431572 0.0027755334 0.00076856476
-0.009557175 -0.024429519 0.018641131 0.021646818 0.022447342 0.0037052948 0.016064236 -0.0054075127
00000000: da0d 77bb 2ad8 903b 15b4 1b3d d5b8 e23c
00000010: 2e71 72bc 1abc d139 98ab 383d 5534 d83c
00000020: 7bdc bdba fc0c b73c 73a1 82ba 9247 033c
00000030: 2dbe f03a adc5 2fbb 1d54 30bc 9e47 b43b
00000040: 422b 7639 5730 2bbb 7519 053c 078b 1d3d
00000050: 5443 2abb 00c4 1dba 1186 d53c 7ae6 c9bb
00000060: 3059 abbb 740b 143d 79e5 83bc 4c36 e73c
00000070: 1a2e cb3c 1f5e 63bb df59 993b cbea 96bb
00000080: 2868 d4bc 1bd2 953b 7965 63bc 8654 eab9
00000090: 5bc0 02bd b8a8 f53c e82b 9d3c ba5b aa3c
000000a0: 83ab c5bb af7b cbbc 689f 803c 402a 033c
000000b0: 61da 0abc 64a9 353c 4751 84bc b9c2 fbbc
000000c0: b336 92bc dff8 82bb bf4f 1fbb 0708 9c3c
000000d0: 55bc 003c 786e e5bb 7083 7fbb 87d4 573c
000000e0: 90a8 1d3d 26dd d03b 22a0 a5bb ff30 163d
000000f0: 9e28 b53b a163 66bc f87c 0c3a b1df aebc
00000100: d6ed 8dbc 5bbd 4b3c 2c26 6b3c ec08 12bc
00000110: 3788 3dbd f008 cfbc 1fcb 91bc e298 12bc
00000120: 699d 473c bb31 88bb bb28 7ebc b64b 973c
00000130: 175c a1bc 1587 463c 85bd 13bd e0b6 cb3c
00000140: 0509 9abc 48e9 ba3b 2df9 283d 8ba2 6f3b
00000150: d193 db37 14bb 183c 554d eb3a 35b9 e5bc
00000160: 044a 43bc fb30 a4bc 623d 873c 5c85 12bd
00000170: 474c e3bc 59ee 813c 10c5 cf3c ea26 66bc
00000180: 375a b8bb be7c 013d 41c3 64bc 5f58 d1ba
00000190: 26fb 82bc c45b 00bc 69b2 923c 518a babc
000001a0: 3e3c 87bc 99df 273b fb3d 29bc 4abf 9e3c
000001b0: 00bf cebc 860b 963c 3338 08bc 8ad8 e93c
000001c0: 15a1 e13c faa0 96bc de80 02bb a910 b9bc
000001d0: 7b2f 873c a298 2ebd a316 0bbd c9e2 163c
000001e0: 05c7 ee3b 8eb9 b7bc 9dce b03c 694a a23b
000001f0: 0c5c 383c 2782 41bb 1e72 06bc 2956 bfbc
00000200: f49d b3bb 87a9 9ebc 3f4c 823b 4c5c ce3b
00000210: 97b7 16bc b5a1 12bd 2678 1abd b9c1 303c
00000220: c572 863c 5cc0 1b3d 48bc 383c 7d18 243b
00000230: 1bc4 d9bc 37c4 02bc 5d85 cdbc 8cf0 bcbc
00000240: a951 26bd 28ad 39bd 5386 fbbc f892 c03b
00000250: 1efd ce3c 9e43 7a3c 41cc b0bc 469d 4dbc
00000260: 66e4 4e3b 1b44 ff3b ab91 f0bb 8046 01bc
00000270: 6b88 10bc cc15 dfbc 1ca1 8ebc aed4 513c
00000280: 0179 d4bc 359e 9cbb f5d4 dd39 9c32 b83c
00000290: 22d4 d3bc 7b28 193d 698d 853b 56a4 cd3c
000002a0: abd3 3abc b6c8 18bc b320 33bc 2bcd 533c
000002b0: 2b3b 25bd bd24 ffbc 1893 00bd 7f21 a7bb
000002c0: a451 c0bc 2f00 ae3c 5a58 6cbc 2553 a7bc
000002d0: 1f2a c5bc ac3f 2cbc dcee d13c 4c3e ddbb
000002e0: 80ca 17bc 6a1e 83bc 3685 8d3b b7f3 713c
000002f0: 79b4 e33c f3bb 363c 9c6d 263c 3bc1 7d3c
00000300: b897 a03b 61eb 253d 9ce9 ba3b 1e69 7cbc
00000310: d610 c63c 9f28 91bc 4978 78bc 2884 d03b
00000320: 0f95 10bc e8dc 4fbd 5951 18bc b04f 10ba
00000330: d67d 313c 551c e6b9 ac1d 923c 2002 d4b9
00000340: 6222 acbc b347 df3c c2ce 933c 4a14 ac3c
00000350: 2c65 8abc f934 f1bc 673c 03bc b414 0dbb
00000360: 6cab 983c 9b0e 203d f5bf 74bb ec20 8eba
00000370: 2ce4 fdbb 5c0c 0abd f30f 233d 5d32 b7bc
00000380: 3360 2cbc 4128 c73c afda 67bc 24fd 29bb
00000390: d290 d3bc b2ef 5bbd bca0 f0bb 2985 d3bb
000003a0: b276 10bd a7bd 1d3c e224 543b 5127 883c
000003b0: 0be3 8dbb af97 d338 1cf2 2b3d cb17 d8bc
000003c0: 1fae 83bb 9321 08bd 658c b43b 9972 753c
000003d0: d196 f93c 9d44 e239 b9e5 353b 8279 493a
000003e0: b395 1cbc 6a20 c8bc 49b5 983c ab54 b13c
000003f0: 7de3 b73c 88d4 723b 2599 833c 8131 b1bb

fc1.bias f4 [64]
0.005671198 -0.015221202 -0.025229106 -0.029129159 0.030921826 -0.0109965075 -0.03257963 0.030227063
-0.010360082 -0.019500528 -0.02331379 0.0237275 -0.0028615538 -0.0050286464 0.0027371468 -0.037123524
0.020189753 0.023014447 -0.007957228 0.033392977 -0.022645812 0.0021830106 0.027141541 -0.012477308
-0.017037263 0.015351425 -0.031296104 -0.005457368 0.014738777 -0.041963726 0.010579723 -0.009896794
-0.010560342 0.045946598 -0.011372929 -0.025316657 0.017587699 0.0042994176 -0.034689482 0.040264063
0.0030690941 0.021212472 -0.017961666 -0.03910904 0.012342996 0.016068742 -0.012652932 -0.039850254
0.02430689 0.0003831773 -0.0059228004 0.018017903 0.0019512777 -0.018379224 0.001365697 -0.013772679
0.004791392 0.018285144 0.037727363 0.013721606 -6.2113584e-05 -0.0018846664 -0.012019042 -0.023739103
00000000: 75d5 b93b 5962 79bc 45ad cebc 46a0 eebc
00000010: c54f fd3c b22a 34bc 3872 05bd bf9e f73c
00000020: 55bd 29bc 92bf 9fbc 90fc bebc 2d60 c23c
00000030: e888 3bbb 58c7 a4bb b461 333b d60e 18bd
00000040: fb64 a53c cb88 bc3c 095f 02bc 13c7 083d
00000050: b683 b9bc d710 0f3b f057 de3c 9f6d 4cbc
00000060: bb91 8bbc 8b84 7b3c 5830 00bd b9d3 b2bb
00000070: e97a 713c 28e2 2bbd 9356 2d3c 2a26 22bc
00000080: 4905 2dbc 8032 3c3d 8655 3abc e164 cfbc
00000090: 1414 903c 21e2 8c3b 8f16 0ebd eeeb 243d
000000a0: db22 493b c7c5 ad3c 5824 93bc cd30 20bd
000000b0: 473a 4a3c 98a2 833c 3e4e 4fbc 053a 23bd
000000c0: 3e1f c73c 30e5 c839 0d14 c2bb 489a 933c
000000d0: 04c2 ff3a 0790 96bc 3001 b33a cda6 61bc
000000e0: 1c01 9d3b baca 953c 0288 1a3d 96d0 603c
000000f0: fa42 82b8 e906 f7ba 84eb 44bc 8278 c2bc

bnorm1.weight f4 [64]
0.95785373 0.9425537 0.9601336 0.97474486 0.9518698 0.94783145 0.9495488 0.9459711
0.9567544 0.93789554 0.94066036 0.94414306 0.9431809 0.96868837 0.95043194 0.9301731
0.95016605 0.9617997 0.95492953 0.9436622 0.951311 0.96168846 0.95275486 0.965957
0.95134425 0.94879156 0.9653997 0.9608848 0.941778 0.9402892 0.9689397 0.9637495
0.9492852 0.9414523 0.93909097 0.964411 0.96141875 0.9602945 0.9501679 0.946439
0.9670434 0.9559422 0.93970644 0.9339449 0.94038266 0.952615 0.95519555 0.9761059
0.97520894 0.9614057 0.96072257 0.94676113 0.95098966 0.948145 0.9516282 0.9550325
0.95094794 0.933652 0.9433084 0.96556807 0.9541211 0.9406691 0.9467166 0.9438913
00000000: e735 753f 334b 713f 51cb 753f e188 793f
00000010: bdad 733f 15a5 723f a115 733f 292b 723f
00000020: dbed 743f ec19 703f 1ecf 703f 5cb3 713f
00000030: 4e74 713f f6fb 773f 824f 733f d31f 6e3f
00000040: 153e 733f 8138 763f 4376 743f d993 713f
00000050: 1e89 733f 3731 763f bee7 733f f548 773f
00000060: 4c8b 733f 01e4 723f 6f24 773f 8cfc 753f
00000070: 5d18 713f cbb6 703f 6f0c 783f 4ab8 763f
00000080: 5b04 733f 0503 713f 4468 703f a4e3 763f
00000090: 8a1f 763f dcd5 753f 343e 733f d449 723f
000000a0: 2890 773f a1b8 743f 9a90 703f 0317 6f3f
000000b0: ebbc 703f 94de 733f b287 743f 14e2 793f
000000c0: 4ba7 793f af1e 763f eaf1 753f f05e 723f
000000d0: 0f74 733f a1b9 723f e89d 733f 037d 743f
000000e0: 5371 733f d103 6f3f a97c 713f 782f 773f
000000f0: 4841 743f b1cf 703f 055c 723f dca2 713f

bnorm1.bias f4 [64]
-0.0040919306 0.028619181 0.0072112307 0.006300696 -0.010561677 -0.034298304 -0.026792873 -0.018867353
0.01299566 -0.0074805403 0.015692772 0.0030006743 0.012261539 -0.00075772876 -0.015844787 -0.011588343
-0.010853232 0.00078390184 -0.0005604548 0.018191028 -0.022027612 0.03744284 0.022271655 -0.0048843073
-0.017318787 -0.013762242 -0.035625942 0.0056660622 -0.009947932 -0.003798738 -0.015502761 0.0061847256
0.018508445 0.026205609 -0.04872141 -0.033490643 -0.0040958677 0.005837533 -0.034656644 -0.015958402
-0.00080436165 -0.00626522 0.00873918 -0.03368743 -0.0029235499 0.014071926 0.0033195696 -0.0439475
-0.020595286 0.0068984404 0.023665324 -0.057875633 0.00034013786 0.012351284 0.011192425 -0.030859377
0.002778307 -0.03110403 0.0025629802 0.009450318 -0.014667554 0.018232062 -0.05060671 0.012742087
00000000: 9a15 86bb c672 ea3c 304c ec3b 1276 ce3b
00000010: e20a 2dbc 617c 0cbd ba7c dbbc b58f 9abc
00000020: c0eb 543c 521f f5bb 218e 803c f6a6 443b
00000030: 9fe4 483c 51a2 46ba edcc 81bc 09dd 3dbc
00000040: c1d1 31bc c37e 4d3a 7ceb 12ba 5a05 953c
00000050: 4073 b4bc aa5d 193d 0c73 b63c 8a0c a0bb
00000060: 21e0 8dbc 077b 61bc 82ec 11bd 60aa b93b
00000070: a7fc 22bc 3ff4 78bb 4bff 7dbc 3da9 ca3b
00000080: 069f 973c 25ad d63c 1a90 47bd 7c2d 09bd
00000090: a136 86bb c748 bf3b 20f4 0dbd 32bb 82bc
000000a0: ccdb 52ba 7a4c cdbb c72e 0f3c d5fb 09bd
000000b0: 0799 3fbb ef8d 663c 238d 593b 4b02 34bd
000000c0: 72b7 a8bc 500c e23b c8dd c13c 000f 6dbd
000000d0: 8854 b239 0a5d 4a3c 6f60 373c cecc fcbc
000000e0: 4214 363b e1cd febc acf7 273b 82d5 1a3c
000000f0: 2e50 70bc 685b 953c fb48 4fbd 30c4 503c

bnorm1.running_mean f4 [64]
0.15019034 0.64894515 0.24366212 0.10796183 0.9658394 0.12782052 0.071667336 0.26597252
0.020743351 0.24973334 0.6798379 0.14766456 0.3762182 0.51332605 0.05441859 0.0015214904
0.27045342 0.40614393 0.094411075 0.5198587 0.26760483 0.6198594 0.21356791 0.1764838
0.42536867 0.23272048 0.08797695 0.67840207 0.47846243 0.111104235 0.2824784 0.531046
0.2761304 0.53908604 0.46106473 0.0710461 0.32340673 0.31221253 0.09265592 0.7314673
0.4753068 0.31564763 0.23897336 5.6400966e-14 0.32769933 0.19436757 0.4271976 0.100443035
0.19035633 0.40152463 0.55902267 0.6179553 0.6779532 0.78258306 0.19192593 0.052537296
0.28300455 0.35373864 0.22515115 0.11936112 0.64516 0.63245 0.993643 0.15091687
00000000: 7fcb 193e 4521 263f 9082 793e 181b dd3d
00000010: 4041 773f 62e3 023e 53c6 923d 8d2d 883e
00000020: f6ed a93c 19ba 7f3e db09 2e3f 6135 173e
00000030: ac9f c03e 5669 033f 07e6 5e3d bf6c c73a
00000040: df78 8a3e 19f2 cf3e 985a c13d 7615 053f
00000050: 8003 893e 1baf 1e3f 8cb1 5a3e 2bb8 343e
00000060: ecc9 d93e 474e 6e3e 422d b43d c2ab 2d3f
00000070: 07f9 f43e 9e8a e33d 02a1 903e a1f2 073f
00000080: f760 8d3e 8b01 0a3f ad10 ec3e 9e80 913d
00000090: 9195 a53e 52da 9f3e 63c2 bd3d 7141 3b3f
000000a0: 6a5b f33e 919c a13e 6fb5 743e e301 7e29
000000b0: 35c8 a73e 4b08 473e a5b9 da3e 14b5 cd3d
000000c0: c5ec 423e a394 cd3e 1c1c 0f3f 5232 1e3f
000000d0: 578e 2d3f 5d57 483f 3b88 443e 5931 573d
000000e0: f9e5 903e 3b1d b53e 068e 663e 9a73 f43d
000000f0: 3529 253f 3ee8 213f 635f 7e3f f489 1a3e

bnorm1.running_var f4 [64]
0.089551255 0.59697074 0.23482847 0.07806901 0.5858558 0.12404653 0.046127867 0.17646642
0.011990438 0.16955574 0.3213856 0.12618868 0.23734367 0.32375997 0.054930754 0.0008762899
0.21742742 0.26309392 0.06505237 0.2674635 0.3030843 0.36075756 0.09910114 0.120167784
0.2700664 0.17124875 0.05364951 0.41887495 0.4187958 0.059223335 0.24004503 0.41594437
0.15954381 0.37126502 0.32312423 0.06714679 0.19560112 0.26736537 0.05280076 0.5903406
0.408281 0.24884234 0.15370269 4.7955512e-14 0.23564987 0.1390855 0.28421876 0.06183774
0.12476294 0.25323784 0.33228368 0.43525276 0.49340168 0.3358513 0.12349801 0.048650257
0.16211681 0.13734889 0.15647222 0.08656143 0.35661742 0.44310588 0.7920926 0.1370883
00000000: a666 b73d 13d3 183f e076 703e a5e2 9f3d
00000010: a5fa 153f 1b0c fe3d 93f0 3c3d 9db3 343e
00000020: 8b73 443c 05a0 2d3e a78c a43e 9b37 013e
00000030: 380a 733e dec3 a53e 12ff 603d d2b6 653a
00000040: 4ba5 5e3e 3fb4 863e 2d3a 853d faf0 883e
00000050: de2d 9b3e 37b5 b83e 8af5 ca3d 871a f63d
00000060: 2546 8a3e d55b 2f3e 97bf 5b3d c776 d63e
00000070: 676c d63e 2b94 723d 5dce 753e a9f6 d43e
00000080: 745f 233e 7316 be3e 8a70 a53e 4284 893d
00000090: a94b 483e 1de4 883e 9c45 583d 9020 173f
000000a0: 350a d13e 87d0 7e3e 3d64 1d3e f1f8 5729
000000b0: 334e 713e 6e6c 0e3e 1f85 913e 9249 7d3d
000000c0: b683 ff3d 64a8 813e 1621 aa3e 73d9 de3e
000000d0: 259f fc3e b4f4 ab3e 86ec fc3d 7e45 473d
000000e0: f301 263e 30a5 0c3e 413a 203e 1e47 b13d
000000f0: 8f96 b63e c6de e23e 95c6 4a3f e060 0c3e

fc2.weight f4 [32, 64]
-0.12857619 0.045011498 0.0008542574 -0.010601753 0.03457977 -0.08403846 -0.03836257 0.010775994
0.074652806 0.042945065 0.009156443 -0.05551272 0.1383201 0.04426086 -0.084426515 -0.086353
-0.11388991 0.068918005 -0.026171634 -0.11448419 -0.12040272 0.04163458 -0.0167526 -0.04241245
0.014426777 -0.087564595 -0.1337044 -0.04251932 -0.11879626 -0.07556372 0.0606916 -0.13313451
0.032825604 0.02145542 -0.14487788 -0.08294583 -0.12869723 0.046452038 0.05510817 0.02105578
-0.14388283 0.022656133 0.06141029 0.077142335 0.05955689 0.046939716 0.11627244 -0.13483104
-0.03599863 -0.09964241 -0.078312494 0.008014453 -0.019217677 -0.06348548 0.101755284 -0.04196587
0.048993185 -0.044319306 0.102266826 0.04345964 -0.038025107 0.09716403 0.0050871554 0.070697404
-0.0008950488 0.051081296 -0.118880846 -0.04642831 -0.058192022 0.04186002 0.020264508 -0.1066903
-0.0695358 0.037717562 0.036995955 0.082861364 -0.022627434 0.0552645 0.006417346 -0.10283626
-0.03820638 -0.0452018 0.008727067 0.018636866 0.056402083 -0.055327296 -0.008619987 -0.09341509
-0.0331978 0.046940714 -0.05986592 -0.06876227 0.10410692 -0.009590744 0.057719197 -0.05211062
-0.0155796325 0.032912295 -0.07152093 0.076690555 -0.14355104 -0.020093875 -0.044677157 -0.030986488
-0.05764106 0.03599486 0.038732782 0.029292699 -0.07550175 0.070979916 0.07051324 -0.09576246
-0.13759157 0.002356344 -0.10075789 -0.029030344 -0.035420146 -0.055306062 0.045051515 -0.07539715
-0.054663546 0.041221596 -0.13484974 0.03760272 -0.024142371 0.052682403 -0.05223346 -0.024390845
-0.059005436 -0.01261974 0.004286451 0.12613718 0.03323174 0.051774062 0.04901406 0.021369452
-0.12867433 0.075530626 -0.024917876 0.026295867 0.0117318155 -0.16508025 -0.04796686 -0.0007345496
0.071675085 -0.045423802 0.048961546 -0.009466589 0.072453864 -0.14486374 -0.13772438 -0.019757353
0.041451875 -0.038413312 -0.09092008 -0.035289146 0.006025124 0.052920017 0.041677605 -0.050237946
-0.10314884 -0.14373758 -0.055165157 0.021095818 0.0077280668 -0.14902101 0.07417718 0.058697004
-0.055299945 0.07638092 0.019255493 -0.046044063 -0.06314847 0.0062193135 0.023965001 -0.044245243
-0.09996427 -0.04208461 -0.020036524 0.062079687 -0.034771297 -0.08018175 -0.11191562 0.056507044
-0.03693308 -0.032766063 -0.009317655 0.03983333 -0.16090272 -0.021388397 -0.04585288 0.032857627
-0.0623189 -0.048201606 -0.00518413 -0.012882319 -0.034748882 0.06801689 -0.040364385 -0.0013631587
-0.0019471148 -0.06559387 -0.009936774 -0.087698475 -0.091627255 -0.08042344 0.0062900367 -0.04659745
-0.11486412 0.002253698 -0.121015534 -0.05364115 0.06815888 -0.019929666 -0.07802722 -0.05682046
-0.10198901 0.08959632 0.021394236 -0.01965335 -0.043112475 -0.03683407 -0.13612121 0.046270274
0.028284647 -0.045648813 0.044842124 -0.1337072 0.0024159367 0.05556282 0.108714186 -0.07031392
-0.060314104 -0.13887854 0.034037203 0.01630804 -0.123594865 -0.052141067 0.053394128 0.11087832
-0.04986125 0.055660143 -0.058947925 0.022386923 0.035857573 0.03231126 -0.02069106 0.0006567526
0.066594936 0.05446441 -0.023689095 -0.11353486 -0.0337471 -0.010088807 -0.10210931 0.063710056
00000000: 7aa9 03be fa5d 383d 3ef0 5f3a fab2 2dbc
00000010: 84a3 0d3d 5b1c acbd 1222 1dbd cb8d 303c
00000020: 92e3 983d 2ae7 2f3d e804 163c 4e61 63bd
00000030: c9a3 0d3e e04a 353d cfe7 acbd d7d9 b0bd
00000040: 1d3f e9bd e224 8d3d e565 d6bc b076 eabd
00000050: b495 f6bd 0589 2a3d c03c 89bc adb8 2dbd
00000060: 4a5e 6c3c 1155 b3bd cee9 08be bd28 2ebd
00000070: 744b f3bd 27c1 9abd c197 783d 6a54 08be
00000080: 2474 063d 47c3 af3c de5a 14be 81df a9bd
00000090: 35c9 03be 7e44 3e3d 1bb9 613d 2c7d ac3c
000000a0: 0556 13be 5b99 b93c 5b89 7b3d cdfc 9d3d
000000b0: edf1 733d dc43 403d 3f20 ee3d 2611 0abe
000000c0: 4d73 13bd 5211 ccbd 4d62 a0bd 0d4f 033c
000000d0: 646e 9dbc ad04 82bd 1365 d03d 67e4 2bbd
000000e0: 14ad 483d 2988 35bd 4571 d13d bc02 323d
000000f0: 37c0 1bbd effd c63d 27b2 a63b cdc9 903d
00000100: b5a1 6aba 9f3a 513d cd77 f3bd 9d2b 3ebd
00000110: c25a 6ebd 6a75 2b3d c101 a63c 7280 dabd
00000120: c968 8ebd bb7d 1a3d 1289 173d 38b3 a93d
00000130: 2b5d b9bc 075d 623d 9a48 d23b d19b d2bd
00000140: 4b7e 1cbd 8625 39bd f9fb 0e3c 57ac 983c
00000150: df05 673d e09e 62bd d93a 0dbc 6950 bfbd
00000160: 6bfa 07bd e844 403d f835 75bd 3cd3 8cbd
00000170: 0236 d53d 7f22 1dbc f76a 6c3d f271 55bd
00000180: b741 7fbc 0bcf 063d 9179 92bd f00f 9d3d
00000190: 0bff 12be e99b a4bc 65ff 36bd 60d7 fdbc
000001a0: 0819 6cbd 596f 133d 44a6 1e3d 3ef7 ef3c
000001b0: a9a0 9abd eb5d 913d 3f69 903d 1c1f c4bd
000001c0: cee4 0cbe e46c 1a3b 275a cebd 0bd1 edbc
000001d0: b714 11bd 9c88 62bd f087 383d d269 9abd
000001e0: e2e6 5fbd fad7 283d 0d16 0abe 4f05 1a3d
000001f0: 39c6 c5bc 81c9 573d c1f2 55bd 4fcf c7bc
00000200: afaf 71bd 07c3 4ebc 5b75 8c3b 1b2a 013e
00000210: 011e 083d 0a11 543d f8c2 483d fd0e af3c
00000220: 34c3 03be cdaf 9a3d 9320 ccbc 6e6a d73c
00000230: cd36 403c cc0a 29be e678 44bd ca8e 40ba
00000240: 63ca 923d 4f0e 3abd e78b 483d c119 1bbc
00000250: b162 943d 2957 14be 9f07 0dbe 2cda a1bc
00000260: 71c9 293d 4757 1dbd 4f34 babd 5a8b 10bd
00000270: 676e c53b a9c2 583d 23b6 2a3d 4ec6 4dbd
00000280: b33f d3bd f22f 13be dcf4 61bd 23d1 ac3c
00000290: b93b fd3b f798 18be 35ea 973d 456c 703d
000002a0: 3282 62bd 9a6d 9c3d b2bd 9d3c b398 3cbd
000002b0: fc53 81bd 62cb cb3b 4052 c43c 803a 35bd
000002c0: 11ba ccbd e960 2cbd a323 a4bc 4547 7e3d
000002d0: 596c 0ebd 5436 a4bd 0434 e5bd ee73 673d
000002e0: 2447 17bd b535 06bd 14a9 18bc 4628 233d
000002f0: afc3 24be b836 afbc 3bd0 3bbd b895 063d
00000300: 1a42 7fbd 0c6f 45bd a2df a9bb 5d10 53bc
00000310: d854 0ebd 704c 8b3d 2055 25bd 04ac b2ba
00000320: 5536 ffba 1456 86bd dacd 22bc 429b b3bd
00000330: 12a7 bbbd 0bb5 a4bd a71c ce3b f8dc 3ebd
00000340: e13d ebbd c7b2 133b fed6 f7bd d3b6 5bbd
00000350: e296 8b3d 8a43 a3bc bccc 9fbd 92bc 68bd
00000360: 9ddf d0bd 477e b73d f742 af3c 1000 a1bc
00000370: b596 30bd 52df 16bd 5c63 0bbe e685 3d3d
00000380: 34b5 e73c 40fa 3abd 60ac 373d 8aea 08be
00000390: b154 1e3b d795 633d 8ba5 de3d bf00 90bd
000003a0: ec0b 77bd 2d36 0ebe 986a 0b3d 7098 853c
000003b0: 4e1f fdbd df91 55bd cdb3 5a3d 2c14 e33d
000003c0: 4f3b 4cbd e4fb 633d 6173 71bd c864 b73c
000003d0: 64df 123d d058 043d 4c80 a9bc ec29 2c3a
000003e0: ed62 883d 1316 5f3d a20f c2bc f784 e8bd
000003f0: 663a 0abd 864b 25bc b01e d1bd 6b7a 823d

fc2.bias f4 [32]
-0.04013782 0.14206219 0.019105656 0.0033064336 -0.05258035 0.09579552 0.16430664 0.1596574
0.0948142 0.022916399 -0.0421251 0.10228162 -0.054758515 0.15567833 -0.022687748 -0.046113852
-0.033455856 0.06351392 0.07459685 -0.031206489 0.06521061 0.013069563 0.08683203 0.011809659
0.0064828387 0.13433377 0.11565942 0.11142373 0.113155 0.014953015 -0.07473207 0.10749924
00000000: 8e67 24bd c078 113e 7783 9c3c c0b0 583b
00000010: 7e5e 57bd 7130 c43d 0040 283e 3b7d 233e
00000020: f32d c23d 2cbb bb3c 5e8b 2cbd 0779 d13d
00000030: 774a 60bd 246a 1f3e a8db b9bc e1e1 3cbd
00000040: 0209 09bd 9613 823d 3cc6 983d c0a4 ffbc
00000050: 248d 853d b821 563c fed4 b13d 4d7d 413c
00000060: fe6d d43b cb8e 093e d9de ec3d 2032 e43d
00000070: cfbd e73d 7efd 743c 210d 99bd 9028 dc3d

bnorm2.weight f4 [32]
1.101511 1.1532809 1.1849167 1.1234306 1.1045247 1.1439904 1.098528 1.1772156
1.1870115 1.1650264 1.1072104 1.1075308 1.0782237 1.1546007 1.1471502 1.0589906
1.2317387 1.1880015 1.1676985 1.0923377 1.1733923 1.1493864 1.0882068 1.1464475
1.1315006 1.1813434 1.12663 1.1101059 1.1013619 1.1606926 1.2131872 1.1066537
00000000: 50fe 8c3f b59e 933f 5aab 973f 93cc 8f3f
00000010: 1161 8d3f 476e 923f 919c 8c3f 00af 963f
00000020: feef 973f 961f 953f 12b9 8d3f 92c3 8d3f
00000030: 3c03 8a3f f5c9 933f d1d5 923f 018d 873f
00000040: 9da9 9d3f 6f10 983f 2577 953f b9d1 8b3f
00000050: b831 963f 181f 933f 5c4a 8b3f cbbe 923f
00000060: 03d5 903f 4336 973f 6935 903f f317 8e3f
00000070: 6df9 8c3f 9391 943f b849 9b3f d4a6 8d3f

bnorm2.bias f4 [32]
0.04942908 0.04080356 -0.083708405 -0.019629596 -0.0211255 -0.039598793 -0.03022532 0.040866427
-0.026301926 0.029766042 0.0066743544 0.0050797234 0.022398515 -0.06597927 -0.020020183 -0.004020367
-0.07646722 -0.031813297 -0.080190115 0.025381664 -0.033947848 0.04343069 0.03960339 -0.04367888
-0.026222538 0.074609704 -0.03930838 -0.009630739 0.041337084 0.038756948 -0.085343465 0.0464574
00000000: 2676 4a3d a221 273d 506f abbd 3fce a0bc
00000010: 620f adbc 5832 22bd 179b f7bc 8e63 273d
00000020: 2377 d7bc ead7 f33c 8bb4 da3b cf73 a63b
00000030: 177d b73c 2420 87bd 5e01 a4bc 48bd 83bb
00000040: d99a 9cbd a94e 02bd b73a a4bd 35ed cf3c
00000050: e60c 0bbd 61e4 313d 2a37 223d a0e8 32bd
00000060: a6d0 d6bc f9cc 983d d301 21bd 3fca 1dbc
00000070: 1351 293d 9bbf 1e3d 8ec8 aebd 1d4a 3e3d

bnorm2.running_mean f4 [32]
0.37855646 0.3892628 0.37625203 0.3108682 0.35281348 0.39526975 0.3985117 0.41743296
0.38189316 0.40372574 0.41128105 0.39628205 0.34785575 0.41243067 0.35339788 0.32861933
0.40059808 0.35079858 0.38681456 0.35706663 0.32853374 0.33095592 0.38661215 0.3374166
0.35250828 0.42626506 0.38190117 0.30882496 0.3881058 0.40297687 0.39575332 0.41186786
00000000: 27d2 c13e 744d c73e 1ba4 c03e 1e2a 9f3e
00000010: f8a3 b43e cc60 ca3e ba09 cc3e c6b9 d53e
00000020: 8087 c33e 24b5 ce3e 6e93 d23e 7be5 ca3e
00000030: 261a b23e 1d2a d33e 91f0 b43e cb40 a83e
00000040: 311b cd3e df9b b33e 8f0c c63e 70d1 b63e
00000050: 9335 a83e 0e73 a93e 07f2 c53e dec1 ac3e
00000060: f77b b43e 6a3f da3e 8d88 c33e 4e1e 9e3e
00000070: ceb5 c63e fc52 ce3e 2ea0 ca3e 58e0 d23e

bnorm2.running_var f4 [32]
0.2920263 0.22115675 0.2708798 0.22152938 0.26026747 0.2532748 0.18527624 0.3405084
0.22416283 0.27005592 0.34841254 0.3222005 0.24371755 0.30205822 0.24330793 0.33272207
0.28949282 0.32662117 0.29001418 0.3412451 0.25273967 0.1925775 0.28205153 0.24925078
0.30389482 0.29433912 0.25481623 0.20721781 0.23295145 0.29576924 0.3678844 0.24194402
00000000: 7984 953e ea76 623e c2b0 8a3e 99d8 623e
00000010: c741 853e 3cad 813e 0eb9 3d3e 1e57 ae3e
00000020: f18a 653e c544 8a3e 2163 b23e 77f7 a43e
00000030: 1891 793e 60a7 9a3e b725 793e 8c5a aa3e
00000040: 6738 943e e43a a73e bd7c 943e aeb7 ae3e
00000050: 1867 813e 0933 453e 0f69 903e 993b 7f3e
00000060: 1a98 9b3e 9eb3 963e 4677 823e e830 543e
00000070: d38a 6e3e 116f 973e 585b bc3e 2cc0 773e

fc3.weight f4 [10, 32]
-0.07447901 0.25601387 -0.24771026 0.23903562 -0.05952419 -0.048307564 0.19137327 0.40032116
-0.14916949 -0.29426476 0.2134654 -0.107685365 0.023556337 0.31223863 -0.25155625 0.15592426
-0.13865177 -0.09226397 -0.07647604 -0.032844927 -0.023403142 0.18828131 0.3782535 -0.061047606
-0.13401906 0.1085948 0.3461683 -0.1333979 0.2749678 0.39864853 -0.1783401 0.067984566
-0.16897729 0.056670997 -0.01645605 -0.23839302 0.0054188548 0.44076946 0.09899944 -0.24465235
-0.09119596 -0.14497828 0.49178758 -0.037379872 -0.16520956 0.15207617 0.31373584 -0.02995932
0.254729 -0.19793317 0.012593295 0.4440202 0.33960715 0.047601324 -0.11996849 -0.103825636
0.40912896 -0.10578251 -0.04463139 0.35125077 -0.06851886 0.15167789 -0.14051719 -0.17388916
-0.054622922 -0.22699259 -0.11608897 -0.054087184 -0.06117541 0.1877798 -0.22379294 -0.1759711
0.41015923 -0.13117082 0.037484694 -0.17116405 0.045200866 -0.15624405 -0.18355365 -0.1802979
-0.24307562 -0.089200184 -0.24823348 -0.23347242 -0.20584461 0.21042392 -0.19143495 -0.25541893
-0.010272438 0.4379355 0.0783008 0.12147504 0.41689348 -0.20287348 -0.20233333 0.09970483
-0.09177469 0.44980738 -0.26197556 -0.13218139 0.3416363 -0.08202832 0.12823045 -0.21143399
-0.23873353 -0.04755881 -0.07968127 -0.2315112 -0.114061564 -0.14828657 0.25130537 0.3673184
-0.28370103 0.113196 -0.13578194 0.22100094 -0.2105893 -0.06596986 0.0021418417 -0.1512151
0.14782844 -0.020333556 -0.1885505 -0.13074426 0.025656369 0.3337739 -0.16740623 0.38023555
0.22416247 0.1361011 -0.22800848 -0.037748218 0.11129049 -0.24926186 -0.2308738 -0.15164371
0.38071746 0.304865 0.08158742 0.2643468 0.3134222 -0.2510662 -0.1922808 -0.16111436
-0.27325028 -0.22154368 -0.25199884 0.10800212 -0.12809874 -0.22106421 0.15373005 -0.15535524
0.35551855 0.2578182 -0.2508448 -0.21242699 0.2305346 -0.10007487 -0.13231608 -0.10924769
-0.22859597 -0.08342927 0.22608592 0.11372443 -0.147417 -0.30248165 0.040612753 0.18024956
-0.24690983 0.38406155 -0.26012564 -0.12687014 0.19388118 -0.08818487 0.35079786 -0.08446168
0.46043852 0.6029369 -0.056893714 -0.10862805 0.42730087 -0.20215394 -0.2364874 0.011726072
-0.065158494 -0.000113343616 0.009278126 -0.040912017 -0.034684677 -0.17640936 0.33666956 0.12550989
0.38269094 0.012179497 -0.3398036 -0.0062461174 -0.12652737 -0.18892501 -0.17055394 0.3446183
-0.09352567 0.090931565 0.028285991 0.30189937 0.06637802 -0.09679494 -0.21716592 -0.14820181
-0.274117 -0.07120259 -0.13092685 0.07377494 -0.17978989 0.38818777 0.2955398 -0.037637655
-0.26692423 0.37879342 0.09670828 -0.05638708 0.09724648 0.29383406 -0.17866424 0.20518228
-0.12791948 -0.19095233 0.14674331 0.47249368 0.32735768 0.17655954 0.2601162 -0.27651513
0.060857616 0.31723198 -0.030393383 -0.11791574 0.12956318 -0.12628607 0.086330906 -0.10493852
0.2821012 -0.2354994 0.28496835 -0.19229065 0.15876466 -0.21899086 -0.06596297 0.36398506
-0.119819194 -0.24327144 0.45858023 -0.15278988 -0.18619892 0.028447548 0.24183427 -0.25947037
00000000: 7488 98bd 4014 833e c2a7 7dbe c1c5 743e
00000010: a3cf 73bd 27de 45bd 5bf7 433e e5f6 cc3e
00000020: e3bf 18be dfa9 96be ac96 5a3e 258a dcbd
00000030: 38f9 c03c bedd 9f3e fbcb 80be 9caa 1f3e
00000040: bbfa 0dbe e4f4 bcbd 789f 9cbd 6788 06bd
00000050: f2b7 bfbc d1cc 403e 71aa c13e 0e0d 7abd
00000060: 4b3c 09be f366 de3d f93c b13e 7699 08be
00000070: 94c8 8c3e a91b cc3e ca9e 36be 7e3b 8b3d
00000080: 6208 2dbe d91f 683d d7ce 86bc 4d1d 74be
00000090: a690 b13b 89ac e13e 38c0 ca3d 2586 7abe
000000a0: f3c4 babd 3075 14be 95cb fb3e a31b 19bd
000000b0: b22c 29be dbb9 1b3e fca1 a03e 3f6d f5bc
000000c0: d76b 823e feae 4abe 1c54 4e3c 9e56 e33e
000000d0: fde0 ad3e 9bf9 423d 0ab2 f5bd 89a2 d4bd
000000e0: 5a79 d13e 80a4 d8bd 68cf 36bd 24d7 b33e
000000f0: 9e53 8cbd 7351 1b3e bde3 0fbe 0010 32be
00000100: 49bc 5fbd bf70 68be 0ec0 edbd 868a 5dbd
00000110: 1193 7abd 5949 403e fa29 65be c531 34be
00000120: 6400 d23e a551 06be 8d89 193d a145 2fbe
00000130: 8b24 393d 71fe 1fbe 7df5 3bbe 03a0 38be
00000140: d1e8 78be 96ae b6bd eb30 7ebe 6513 6fbe
00000150: eec8 52be 5e79 573e 8607 44be 45c6 82be
00000160: ba4d 28bc 1539 e03e 2b5c a03d e8c7 f83d
00000170: 1073 d53e 11be 4fbe 7830 4fbe 0c32 cc3d
00000180: 5ef4 bbbd 274d e63e a921 86be 8f5a 07be
00000190: f4ea ae3e 77fe a7bd d84e 033e 2782 58be
000001a0: 9076 74be 07cd 42bd ef2f a3bd 4611 6dbe
000001b0: 1c99 e9bd 6fd8 17be 19ab 803e 2811 bc3e
000001c0: 4341 91be 4ed3 e73d 6c0a 0bbe 124e 623e
000001d0: b9a4 57be 351b 87bd 245e 0c3b 22d8 1abe
000001e0: 5760 173e 8f92 a6bc 6213 41be d3e1 05be
000001f0: 4e2d d23c 6ae4 aa3e 8a6c 2bbe 3cae c23e
00000200: d98a 653e 165e 0b3e 0e7b 69be e09d 1abd
00000210: 45ec e33d 803e 7fbe 2e6a 6cbe 7d48 1bbe
00000220: 66ed c23e 4417 9c3e 4e17 a73d 7758 873e
00000230: e078 a03e c08b 80be 42e5 44be 2afb 24be
00000240: 76e7 8bbe 59dc 62be fe05 81be 3730 dd3d
00000250: 512c 03be a85e 62be 696b 1d3e 7215 1fbe
00000260: 8706 b63e bf00 843e bb6e 80be 7686 59be
00000270: 4311 6c3e 0ef4 ccbd de7d 07be 41bd dfbd
00000280: 1015 6abe f7dc aabd 1183 673e 5be8 e83d
00000290: 7bf4 16be e0de 9abe 8f59 263d 5793 383e
000002a0: eed5 7cbe b7a3 c43e 302f 85be 3fea 01be
000002b0: ca88 463e 459a b4bd c79b b33e 3ffa acbd
000002c0: 99be eb3e 135a 1a3f 6209 69bd 6278 debd
000002d0: 2ec7 da3e 7101 4fbe c129 72be b61e 403c
000002e0: d171 85bd e4b2 edb8 4803 183c 5c93 27bd
000002f0: 8511 0ebd a8a4 34be f45f ac3e aa85 003e
00000300: 11f0 c33e 838c 473c bdfa adbe 3bac ccbb
00000310: 6490 01be 8f75 41be b1a5 2ebe cf71 b03e
00000320: 638a bfbd 543a ba3d 06b8 e73c 8e92 9a3e
00000330: 33f1 873d 6d3c c6bd be60 5ebe 37c2 17be
00000340: 1059 8cbe aad2 91bd b011 06be 5117 973d
00000350: d71a 38be 8cc0 c63e fe50 973e f129 1abd
00000360: 4baa 88be 36f1 c13e fe0e c63d 24f6 66bd
00000370: 2a29 c73d 6b71 963e c2f3 36be 4e1b 523e
00000380: 53fd 02be 0289 43be e143 163e b1ea f13e
00000390: 6d9b a73e 06cc 343e f32d 853e 6493 8dbe
000003a0: d645 793d 3b6c a23e 8bfb f8bc cf7d f1bd
000003b0: 36ac 043e 2351 01be 42ce b03d 02ea d6bd
000003c0: 926f 903e c126 71be 5fe7 913e d7e7 44be
000003d0: 3493 223e 243f 60be 9817 87bd 405c ba3e
000003e0: c463 f5bd 261c 79be 07cb ea3e f374 1cbe
000003f0: eeaa 3ebe d50a e93c 67a3 773e 4dd9 84be

fc3.bias f4 [10]
0.06023649 -0.18769655 0.04437644 -0.100674786 -0.08890148 0.007178071 0.13152775 -0.0010736134
-0.1608644 -0.056059636
00000000: 8aba 763d 8633 40be 12c4 353d 952e cebd
00000010: fb11 b6bd 0636 eb3b 36af 063e 7db8 8cba
00000020: a3b9 24be ca9e 65bd
