Pytorch1/normalModel.pt (torch, 212907 bytes, 6 tensors)

fc1.weight f4 [64, 784]
00000000: 5618 9cbe 1284 ea3d 6e11 8e3e 8283 453f
00000010: 4f04 de3e 6c5e 653f b16f 1d3f c0ee 713e
00000020: cd18 193f d228 593f a16e 5d3e e0c8 1dbe
00000030: 7514 e2be 012b 8a3f 4771 82bf c2b6 85be
00000040: e763 373f 8fe4 b13f c37c 523f cb71 81bf
00000050: 6ad4 813f c370 dbbd acf8 66bf bfa4 fe3e
00000060: 3207 20c0 ab80 0bc0 f750 5d3e ab21 0a3d
00000070: b83c 17bb c22f 0cbf c739 1cbf 145d 8bbf
00000080: 227d 85bf aa1c 16bf 3abf f43e 613d a6bf
00000090: 53ba 96be 6d19 a03f 80e5 e4bf a5dd c63e
000000a0: 9d6f efbe 906f 903f 61e4 b1be eda0 bdbf
000000b0: 3ebe 6b3d 0d8b 08bf ae75 aabf 023c 3ebf
000000c0: 8467 0dbf db11 fb3f 1334 b9be 49dd 533f
000000d0: 699f 563e c13c 1cbf 9f9a d03e 2d51 f5bc
000000e0: 7e95 343f 5614 2b3f c388 703f 830f 0540
000000f0: f425 2d3f 4fd1 5e3f c0df 67be 1ec5 0ec0
00000100: f387 f7bf 5f2f d73e 2631 20bf e772 a93d
00000110: eced e7bf ea38 3bbf 7a9c 27bf ee26 b8be
00000120: 6fb2 0f3f 1c29 a1bd 78a3 1240 e619 d63e
00000130: 252e 543f bed3 5abf 5551 b0be beb0 ffbd
00000140: c024 efbe 59c4 69bf b08a 7b3f 5986 4b3f
00000150: 6058 e2bf 0bff ff3e cf83 aabf 6e92 12bf
00000160: 0595 1bbf e178 2fbf 0788 27bf 2bed 4dbf
00000170: 1d27 773f 6a27 adbf c9dd 883d b5ae ddbe
00000180: 5386 5d3d 0eb6 d9bd 3725 1f3f 55a0 083f
00000190: 8b6b b0bf 7543 32be a29d b43f b3d9 583e
000001a0: 4115 81bf cfbd e5bf 4d73 cd3f 7a59 1d3f
000001b0: 5707 bd3f ce55 da3f 271a 10be 6e7d d5be
000001c0: e4f9 733f 50ec 4a3f a341 25bf 6129 b13e
000001d0: d2cc 2640 dbdd 87be c39f b4bf 7f7d bfbf
000001e0: 65a9 1ebd 4582 763f 527a 543e 49fe 45bf
000001f0: 877b 9abf 186e f3bf b705 593f 0196 adbf
00000200: 2db8 10c0 7df9 61bf 607b 57bf d16a 623f
00000210: e5bf b23f c113 e1be f728 7e3e bc4a 12c0
00000220: 800a 08bf 1654 d13f 6f96 763f 137f 37be
00000230: 930c 213f 6e98 d53f bfb3 633f 34cf 65bf
00000240: 2e2e 883f 9d3b cb3e 6ef8 a73e e676 323f
00000250: c2c6 5fbe d4d9 8f3e dce7 c5bd 4a48 e13e
00000260: 7ea7 b5be 7184 efbe cfda 02bf 5d34 c23e
00000270: 7ef1 323d 9e34 34be cfb5 88be 7a89 4abf
00000280: 2434 dc3e 1312 633f c88c 00c0 2e93 443f
00000290: 74a6 c93e f018 c8bf 3436 233f 7f22 d83f
000002a0: 0127 7ebf fc2f 4dbf 0efb a9be ec28 06bd
000002b0: a1e7 0c3e 0aa6 cd3e b1b1 dfbf 08b4 f43e
000002c0: 50e4 983f 3342 4ebf 2cbb 913f cca0 f8bd
000002d0: 19cc c13f b632 123f 75f5 913c d9c3 903e
000002e0: 1032 cd3f 6e75 f3be 0702 843f 1046 803e
000002f0: 732e d93e 0d65 3d3e e0c5 2c3f bbc1 3abf
00000300: 50c3 4f3f ff6c a6bf 8edc 043f 6793 553f
00000310: 9b5f 8ebf 2a9d 19bf ebcf f33e e5fd 273f
00000320: dbde 40c0 15a8 593f b43e 6a3e 5a0b dabe
00000330: e6fb 103f bb73 0a40 edfd f93d 0544 b2bf
00000340: a777 8c3f 5f1f 86bf 764d f83f a006 4f3f
00000350: 3ac9 50bf 15fe 143f 9a70 aa3f a8d1 053c
00000360: 3574 89be 8129 10c0 0381 aa3e 9c9e 4abf
00000370: db9e 723f 4bd5 243f 146e 24c0 59dd 3f3d
00000380: 3d93 94bf 6946 17bf d879 64be 5e59 d13e
00000390: 6dc0 26bf e8fd 21bf f25a 2a3f 1f25 a53f
000003a0: cf0a d4bf 3461 8ebf f84e d3bf 36f8 043f
000003b0: 8dbb a6bf 916b 173e b842 b13f 1627 41be
000003c0: 8abd 2ebf 217e 713e 3b46 81bf d097 46bf
000003d0: a7f1 72bf 9417 a1bf bf2b e2bd c11c d9be
000003e0: 2449 553d 4951 32bf fcc1 5c3e c7f4 bb3f
000003f0: aa03 f23d 5d83 323f 15fe e5bc 54a0 85bd
-0.30487317 0.11450972 0.27747673 0.7715379 0.43362662 0.895972 0.6149855 0.23626232
0.5980347 0.8482791 0.21624233 -0.15408659 -0.44156232 1.0794374 -1.019082 -0.26115996
0.71636814 1.3897876 0.8222162 -1.0112852 1.0142949 -0.10714867 -0.90223193 0.49735066
-2.5004392 -2.1797283 0.21612917 0.033723515 -0.0023076963 -0.5476037 -0.6102566 -1.088778
-1.0428813 -0.5863749 0.47802144 -1.2987481 -0.2943903 1.2507759 -1.7882538 0.38840976
-0.46764842 1.1284046 -0.34744552 -1.4814736 0.057554476 -0.53337175 -1.3317163 -0.74310315
-0.5523608 1.9614824 -0.36172542 0.8275953 0.20959248 -0.61030203 0.40742967 -0.029945934
0.70540607 0.66827905 0.9395868 2.0790718 0.67636037 0.8703813 -0.22643948 -2.230781
-1.9338363 0.4202833 -0.62574995 0.08273869 -1.8119483 -0.7313372 -0.6547314 -0.359672
0.56131643 -0.07869169 2.2912273 0.41816634 0.8288291 -0.8547934 -0.3443705 -0.12484883
-0.46707726 -0.9131523 0.98258495 0.79501873 -1.768322 0.4999927 -1.3321475 -0.57254684
-0.6077426 -0.6854382 -0.65441936 -0.80440015 0.9654406 -1.3527653 0.06682927 -0.43297353
0.05408318 -0.10630427 0.6216616 0.5336965 -1.378282 -0.17408545 1.4110606 0.21176796
-1.0084611 -1.794855 1.6050812 0.61464655 1.4767865 1.7057436 -0.14072476 -0.41697258
0.9530318 0.79266834 -0.6455328 0.34601882 2.6062512 -0.2653645 -1.4111255 -1.4960173
-0.038735766 0.96292526 0.20749786 -0.77341133 -1.2068948 -1.9017973 0.84774345 -1.3561403
-2.2612412 -0.88271314 -0.8417263 0.8844424 1.3964812 -0.43960384 0.24820314 -2.2858114
-0.5314102 1.6353786 0.96323293 -0.17919569 0.6290981 1.6687143 0.88946146 -0.8976929
1.0639093 0.3969392 0.32806724 0.69712675 -0.21853164 0.28095877 -0.09663364 0.44000465
-0.3547935 -0.46780732 -0.51115125 0.37930575 0.043687336 -0.17598197 -0.2670121 -0.7911602
0.4300853 0.88699454 -2.0085926 0.7678708 0.39384806 -1.563261 0.6375458 1.6885527
-0.99278265 -0.80151343 -0.33199352 -0.03275387 0.13760234 0.4016574 -1.7476102 0.47793603
1.1944675 -0.8056976 1.1385245 -0.121400446 1.5140411 0.5710863 0.017817238 0.2827442
1.6030903 -0.4755053 1.0313119 0.25053453 0.4241825 0.18495579 0.67489433 -0.7295186
0.811574 -1.3002013 0.5189904 0.83428043 -1.1122926 -0.6000544 0.47619566 0.6562179
-3.013602 0.850221 0.22875482 -0.42586786 0.56634367 2.1633136 0.122066356 -1.3927008
1.0974015 -1.0478324 1.9398639 0.80869484 -0.8155705 0.582002 1.3315613 0.008167662
-0.2684647 -2.2525332 0.33301553 -0.7914827 0.94773644 0.6438796 -2.5692186 0.046841953
-1.1607434 -0.5909181 -0.22312105 0.40888494 -0.6513737 -0.63278055 0.6654502 1.2901953
-1.6565799 -1.1123414 -1.6508474 0.5194124 -1.3025986 0.14787127 1.3848486 -0.18862566
-0.68257964 0.2358327 -1.0099558 -0.775754 -0.9489998 -1.258532 -0.110435 -0.4240475
0.052071705 -0.6965528 0.21558374 1.4684075 0.11817105 0.69731694 -0.028075257 -0.06524721

fc1.bias f4 [64]
00000000: 51d5 38bd d9b7 fa3d d4d2 2f3c 0bed 2cbe
00000010: 8e8d 89bd ae28 cfbd f66d e1bd 1fe7 8bbd
00000020: 5581 16be b13f c0bd 0ea2 69bd 12ae 13be
00000030: e041 06be fd1a b6bd d40b d3bd dee1 9e3c
00000040: af2d 573d 60d8 3bbc e7f1 4fbb 5e8d f23c
00000050: 2697 cabd 771b 23bc 1487 abbd a95a eebd
00000060: 44b1 0ebe 13be 38be e130 9f3d e254 bbbd
00000070: 7cb5 09be 1f0b 3b3e a43b c23d d770 eabd
00000080: eaa7 fcbd 8f08 efbd 95a3 a5bd 6a3d 6b3e
00000090: 0235 ca3b a0be 0b3d dc89 1abe 8803 bfbc
000000a0: 67e5 213b 4527 12be 256a cc3d 5af0 39be
000000b0: 4a25 abbc c9a6 04be e6e5 ddbd 56b2 ce3b
000000c0: da81 b93d 3974 fc3c 5be3 53bd e82d 1ebe
000000d0: d32b 203e ed75 7bbe b0f4 16be f687 2ebe
000000e0: ef8d babd dfcc 1bbe 8154 8ebd 184a 6abe
000000f0: f667 16be 57cf bdbc 6f85 2ebe f4f1 04bd
-0.04512531 0.122420974 0.010731418 -0.168873 -0.067164525 -0.10115181 -0.110073015 -0.06831192
-0.14697774 -0.09387148 -0.057039313 -0.14421871 -0.13111067 -0.08891866 -0.103049904 0.019394811
0.0525338 -0.011465162 -0.0031729878 0.029608425 -0.098921105 -0.009955279 -0.083753735 -0.11638386
-0.13934809 -0.18041258 0.07772995 -0.091470495 -0.13448137 0.18265961 0.09484032 -0.11447304
-0.123367146 -0.11671554 -0.080878414 0.22972646 0.00617087 0.03411734 -0.15091652 -0.023317114
0.0024703385 -0.14272793 0.09981183 -0.18158093 -0.020891804 -0.12954248 -0.10834865 0.0063078804
0.0905797 0.030817138 -0.051730495 -0.154472 0.15641718 -0.24556704 -0.14741778 -0.17044052
-0.09109103 -0.15214871 -0.069497116 -0.22879827 -0.14688095 -0.023170156 -0.17043088 -0.032457307

fc2.weight f4 [32, 64]
00000000: 74bf 82be 5e77 aa3e 809b 453f a745 84bf
00000010: d6ea eabe e217 07be cd64 1cbf baf8 03c0
00000020: 4838 2e3f b0ec 1e3f 2c1d debd 3630 94bf
00000030: 04bc 9fbe 8b57 f63e 97ad efbe a7e2 b53f
00000040: 7ded 833e 40c9 bc3e 0067 653f b9a5 84bf
00000050: 755b 813e 2315 9a3e e59f 82be d28e 6cbe
00000060: dba6 b9bf 42e7 aebf 8fbc 7abf 374f acbc
00000070: a6a5 6a3f 9c05 cbbe 09c9 83be 5134 743f
00000080: a77e 673e e3ed 333e 1d44 86bf 265c 58bf
00000090: 57d7 fbbe 22e6 f5bf a311 8fbe 1243 a8bf
000000a0: c6cd a93f 7121 88be f5ee 95bd 7b0e e23d
000000b0: 5f1b 59bf 8c09 0940 b71e 283f 5e8e c33e
000000c0: 8328 ea3e 63eb 7dbf 72be bb3e d048 2fbe
000000d0: 9e51 fc3d bf64 583d 06f2 b43f 984b f2be
000000e0: 8691 e73f 2b5b b13f d4a3 853e ecf9 ab3e
000000f0: b867 eb3d 20d6 113f 8b66 f9bd 4682 ad3f
00000100: ad0b 65bf dd25 39bf b806 9abf bd63 88bf
00000110: 1a36 583f 993a c33d c238 e43f c9a2 433f
00000120: 6f0a 7cbf 3706 4d3f e4ec 9cbe 0ad7 ac3f
00000130: ccf7 063f 2b96 d9be d90c f4bf b430 2cbf
00000140: 71ca 993e f4f8 8ebf 2e11 263e 85e6 68bf
00000150: 3f71 b0be 0fe0 033f 18e4 703d fe37 b9be
00000160: 4b4d 063f 7500 afbf 2ee5 5d3f ce9a 053f
00000170: 075b 6ebf 7412 803f ecf8 cebd 6bec 293e
00000180: 84e3 823d d193 1d3e 67b5 a1bf 6829 8fbf
00000190: 600b adbd 4528 3cbf 1c37 2ebe 6293 95bf
000001a0: ed07 963f bb05 a43f ffa9 50bd f86a 1ebe
000001b0: db66 01c0 9481 8bbd 958b 013e 967a 6f3e
000001c0: dce9 313f baaf fabe b31f b6bf 8a48 103e
000001d0: c419 d7be 2b73 d9be ff3b 953f 4a9a 07bf
000001e0: 4db3 3fbf 2469 bc3f 5cfc 2cbe 36d5 eebd
000001f0: de1d 91bd 99d5 96be fd82 353f ca05 a83d
00000200: 9697 773f ceaa 97bf 679e 9e3e fe53 2dbf
00000210: 05c7 0140 7478 2f3f 4866 eb3d 5c77 ca3f
00000220: d56b bbbb d367 a5be 7996 233e 2ba8 ad3f
00000230: 46a5 f9bd 9a6e a73e 0349 9dbf d7cf 7abf
00000240: aa60 4cbd 7ae4 a4be ac67 b73f 7094 b3be
00000250: 8987 e6be a29e 483e c738 623d 547b 0e3f
00000260: dfd7 f13e ce53 ecbd b82e 06bf f83e bd3f
00000270: 45db 27bc fb82 1c3f 9075 0abf 5ffd 08be
00000280: 7076 1b3e 9889 033f a333 093f 7e99 98be
00000290: 04d9 803e c4db 5a3e 51f8 323f ae0e 9cbf
000002a0: af45 bbbd 5e20 d9bf 83dd e53e 1391 eb3f
000002b0: 2b81 90be 6baa 14bf 7053 a33e 82be cebf
000002c0: a15b 253e 9081 c1bf 0e22 ff3e 4a91 8cbf
000002d0: e00f 693f b4f4 acbe a811 f83e a6fe d23f
000002e0: 398a 573f 06da c9bb cc87 203f 18e1 9fbf
000002f0: a266 4f3f 116b 93bf fc40 bf3e 37b5 413f
00000300: da25 69bf 51b1 f6be bab3 68c0 4a05 7a3f
00000310: 4ce4 3a3d 8c2f 353f 36dd d83f 02e4 c9be
00000320: e49c 393f c6d0 3e3e ca29 1dbd 9440 c4bf
00000330: dfa8 e8be 97a0 043f 6d44 213d 284c 7e3e
00000340: 3779 9dbf 60cc 48bf cee0 ae3e d8f6 abbe
00000350: 7d6f f13e fa35 dcbf fc4a 96bf 0bf6 6a3f
00000360: fb38 d3be 953e 9b3f 5a0e 81bd e52e 22bf
00000370: 2e9f e93e 2237 60bd fe25 413f 7b4f f43e
00000380: 46cd f23d 1cf3 f53f ee3b 163f 80e9 d83e
00000390: fdc9 c8be 95b8 7b3c ac13 77bf 53c4 aebf
000003a0: a235 8d3e e11d a03e 9dd9 9f3d f7bc 843f
000003b0: fbb3 f7bf b9dd e83f b27a b03f 36e5 abbf
000003c0: 912a dfbf 217c 11bc cbb1 3fbf 7e66 a23f
000003d0: 3a3c f5be 67c8 cebe 962d e33f 1c5c fa3d
000003e0: d415 2e3f e982 de3f ea49 713f 7f57 72bf
000003f0: 0f4d 2e3f a2ff 25bf 0859 dbbe 7eb5 55bf
-0.25536692 0.33294195 0.771904 -1.0333756 -0.4588229 -0.13192704 -0.6109131 -2.062056
0.6805463 0.62079906 -0.10845408 -1.1577213 -0.31198132 0.48113665 -0.46812126 1.4209794
0.25767127 0.36872292 0.8961029 -1.0363075 0.2526509 0.3009425 -0.25512615 -0.23101357
-1.4504045 -1.3664324 -0.9794397 -0.021033866 0.9165901 -0.39652717 -0.25739315 0.9539233
0.22606908 0.17571215 -1.0489537 -0.8451561 -0.4918773 -1.9210856 -0.27943143 -1.3145468
1.3265922 -0.26588014 -0.07320968 0.11037918 -0.8480739 2.1412077 0.6567187 0.38194555
0.45734033 -0.99187297 0.36668736 -0.1711762 0.12320255 0.052830454 1.413636 -0.47323298
1.8091285 1.3855947 0.26101553 0.33589113 0.11494392 0.56967354 -0.12177762 1.3555381
-0.8947094 -0.723234 -1.20333 -1.0655438 0.8445755 0.09532661 1.7829821 0.76420265
-0.9845342 0.8008761 -0.30649483 1.3503125 0.5272186 -0.42497382 -1.9066421 -0.67261815
0.30037263 -1.1169724 0.16217491 -0.90976745 -0.344614 0.5151376 0.058811277 -0.3617553
0.5246169 -1.3672014 0.86677825 0.5218934 -0.93107647 1.0005631 -0.10106072 0.16594093
0.063910514 0.15388419 -1.2633485 -1.1184511 -0.08449435 -0.73498946 -0.1701321 -1.1685603
1.1721169 1.2814249 -0.05094337 -0.15470493 -2.0219028 -0.068118244 0.12650903 0.23386607
0.69497466 -0.48962194 -1.4228424 0.14090171 -0.42011845 -0.4247068 1.1658934 -0.529698
-0.74882966 1.4719586 -0.16893142 -0.116617605 -0.07085775 -0.29459837 0.70903 0.08204229
0.96715677 -1.1849 0.30980226 -0.67706287 2.0277722 0.6854317 0.11494118 1.5817676
-0.0057196417 -0.32305774 0.1597537 1.3566946 -0.121897265 0.3270157 -1.2287906 -0.9797339
-0.049896874 -0.32205564 1.4328513 -0.35074186 -0.4502528 0.19591764 0.05522993 0.55656934
0.4723501 -0.11539422 -0.5241504 1.4784842 -0.010245149 0.6113736 -0.54085636 -0.13377903
0.15181899 0.51381826 0.53594416 -0.29804605 0.2516557 0.21372896 0.6991015 -1.219198
-0.091441505 -1.6963003 0.44895563 1.8403648 -0.28223547 -0.5807254 0.31899595 -1.6151888
0.16148235 -1.5117664 0.4983067 -1.0981839 0.9103985 -0.33780444 0.4845097 1.6483963
0.84195286 -0.0061600236 0.6270721 -1.2490568 0.8101598 -1.1517049 0.37354267 0.75667137
-0.9107338 -0.48182157 -3.6359696 0.9766432 0.045627877 0.70775676 1.6942508 -0.3943177
0.7250502 0.18634328 -0.03836993 -1.5332208 -0.45441338 0.5180754 0.039371897 0.24833739
-1.2302617 -0.7843685 0.34155887 -0.33586764 0.4715537 -1.7203972 -1.1741633 0.9178168
-0.4125441 1.2128474 -0.063015655 -0.63352805 0.45629257 -0.05474008 0.75448596 0.4771689
0.11855559 1.9214816 0.58685195 0.42365646 -0.39216605 0.015363832 -0.9651439 -1.3653663
0.2757998 0.31272796 0.07805178 1.0370167 -1.9351801 1.8192664 1.3787444 -1.3429325
-1.7434865 -0.008879692 -0.74880666 1.2687528 -0.47897512 -0.4038727 1.7748287 0.122246
0.6800206 1.7383701 0.9425341 -0.9466476 0.6808633 -0.6484319 -0.42841363 -0.8348006

fc2.bias f4 [32]
00000000: 071d 65bd 9feb 14be 9d39 c9bc de76 d7bd
00000010: 5409 b1bd 2897 97be b370 8dbd d337 85be
00000020: c25a ebbc ee35 95be 4e88 73be e879 19be
00000030: 2d94 febd 63bb 34be 41f7 41be 50ec f83d
00000040: f97e 0bbe a26a f9bc 28fc 51be bec2 26be
00000050: 8936 f23d 804b 96bd 07e2 2fbe 796d a03c
00000060: 5322 033e 7796 01be a315 a43d a758 95bc
00000070: 8c9a 9fbd c068 b4bd 96ab 18bd e929 b4bd
-0.055935886 -0.14543007 -0.024563605 -0.10520719 -0.08644357 -0.2960751 -0.06906261 -0.26019153
-0.0287298 -0.29142708 -0.23782465 -0.1498791 -0.12430606 -0.17649607 -0.18941976 0.12154448
-0.13622655 -0.030446354 -0.20506346 -0.16285226 0.11826808 -0.07338619 -0.17176066 0.01958345
0.12806062 -0.12655054 0.080119394 -0.01823075 -0.07793149 -0.08809042 -0.037273012 -0.08797056

fc3.weight f4 [10, 32]
00000000: 4f36 2abf 072b 37bf 1f01 08bf ba51 203f
00000010: e6be 84be 9f85 d33f 8de5 c7be 560c 963f
00000020: 6aa7 57bf ccb8 653c bff6 53bf 9398 e6be
00000030: 2a77 823f c0c6 c83f 5c9f 11bf 32e0 acbe
00000040: eedb cb3e 04ae 2bbf a4eb 9ebe 2adf 433f
00000050: 6742 11bf ba61 d4bf f631 843e 1d79 b4bf
00000060: 7b37 863e 637d 83be 496f 08bf 9e5f dc3f
00000070: 4ab0 fdbf efb6 9b3e 3a6c 14bf df2a 023f
00000080: 00e7 debe bced b8bf bb46 783f e4fe 9c3e
00000090: 7ea8 69bf c8bd 143d 0469 f5be 0b0d 923f
000000a0: 39a7 013e 8d4d 4e3f 4a51 603f a132 363e
000000b0: 6655 49bf 44b7 a13d a2d0 ad3f c816 8bbe
000000c0: a075 6d3f 59e1 7b3f c86d e3bf c4fe b6be
000000d0: c0f5 3b3e e15e cdbe 1899 2abd 748d d93f
000000e0: 1978 4f3e 6b67 2cbe 21fa e63e 89d8 503e
000000f0: 5029 97bf f0b0 f0bf e640 2dbd 2e96 fdbe
00000100: 17dd 87bd 77d0 69bf bb2e 5b3f 4a5c 80be
00000110: d197 dfbe 00f7 743d ad34 4cbf a978 24bf
00000120: 1f25 c93e 07af 0f40 f74a 5abf 1407 c23e
00000130: eaa2 0ec0 f336 0b3f 81d0 07bf 1ab3 ca3e
00000140: 821e 15be db65 21bf 62c0 63bf cb03 d1bc
00000150: d81e 173f ef00 5cbf d06f 903f 2a81 f9bf
00000160: ac9f d3be 88d5 923f 0abf d73e 7e77 8dbe
00000170: 434c 58bf 4551 eb3e 9f11 afbe 954f 063f
00000180: 8464 30bf fc82 64bf 70fb 6ebf 27bb 72be
00000190: 242f 8abf b4ca 163f 3a0d b33f c525 193d
000001a0: eeb8 ffbc 0ddc e5bd 0bb0 ffbf d804 c3bf
000001b0: d4f7 ed3e 39ab c93f 7da0 babe 56f2 133f
000001c0: 86ec 90bf fe47 cebf c90c a33e 783c 8d3e
000001d0: edef bebf 1c9f 063f 4544 f73f 1193 263f
000001e0: 8e5a 33bf 96b1 d43f 4536 003e 6ea0 7a3e
000001f0: 24b8 b1bf b013 c23e 4dc7 083e f14f d23f
00000200: b0b3 0f3f 24ae 4f3f db44 12be 991d e43f
00000210: da60 f63e 28bf 3a3e 951a 31bf 48ab 4dbf
00000220: c080 583f 380e 86bf cf5b debe 2edc 95bf
00000230: d3e5 0940 f817 313f 2472 7dbf 1d32 d9bf
00000240: dba9 d7be 922c a23f 1be8 56bf 0e5f 3b3f
00000250: 22da 9fbe 4b71 0dbf 5aa5 0c3f f73f 523f
00000260: af83 66bf 5f41 873c 8775 0040 3bc3 313f
00000270: 7755 193f bf25 8c3f 0f59 9bbd 275c 993f
00000280: 72a6 b5be ae0e 0b3f c011 ef3e 5afd 24bf
00000290: 097d 72be 6249 4c3f 0527 6f3e 2751 a63e
000002a0: 87ee a93e db4b e63e ed52 ae3d 0244 bcbe
000002b0: 894b b0bf 6fb4 013e b533 c53f 8e16 1fbf
000002c0: 3805 463f 1b9b a33f 8992 c13e bf03 49be
000002d0: 7cd0 b23d 4f0e c0bf 405a d1bc 289a 1340
000002e0: 0151 1a40 dfda 3f3f 0fb3 a5be e276 b3bf
000002f0: 3fae a4be d263 3b3f e600 85bd fa54 e4be
00000300: c99e 50be 91f1 e93e 9bfd 583f 3907 b83f
00000310: 11dc 64bf 3fff 0dbd 399c 6e3f 754c 3f3f
00000320: 536c 4a3e ac63 f13f 04af ecbf 89ec d1bd
00000330: 0580 c13d ed52 5b3f c70c 683f f737 8e3d
00000340: c46c ca3f 8bd3 fcbf d7fe d73f 0c4d a43f
00000350: 2935 4e3e 2113 08c0 ad13 1b3c ddfa cdbe
00000360: 59a3 32be 6481 d53e cfaf a43e 0aab 5a3e
00000370: 1162 e43f fa5e 1c3f 81e7 68bd 6aa4 873e
00000380: 3ce6 68bf 119f 8cbe 0c1b dfbe 25cc 8dbe
00000390: bebe ca3e 123d 453f 8520 ebbf 41e6 223f
000003a0: b446 89bf e2ab 623f 50ef 623e 1849 bf3e
000003b0: 0d5c db3f 7266 c4bf 240d d63e 5609 0d3f
000003c0: a9ee 95be 57bc 06be 6ef1 e83f b939 0b40
000003d0: 756c 0ebf 085c eabe 6ea4 75bf 7824 01bd
000003e0: d31f 213f 87b9 7d3e 67dc 32bd b71a 74bf
000003f0: f681 253f 201b 59bf df53 1b3f ee49 133f
-0.6648912 -0.7155003 -0.5312671 0.62624705 -0.25926894 1.6525153 -0.3904232 1.1722515
-0.8423983 0.01402111 -0.8279838 -0.4503828 1.0192616 1.5685654 -0.5688379 -0.33764797
0.3981623 -0.670624 -0.31039155 0.76512396 -0.56741947 -1.6592324 0.25819367 -1.4099461
0.26214203 -0.256816 -0.5329481 1.721668 -1.9819424 0.30413005 -0.5797764 0.50846666
-0.43535614 -1.4447551 0.96982926 0.30663216 -0.91272724 0.036313802 -0.47931683 1.141023
0.12661447 0.80587083 0.8762404 0.17792751 -0.7864593 0.07896283 1.3579295 -0.27165818
0.92757607 0.9839073 -1.7767878 -0.35741246 0.18355465 -0.4011145 -0.041649908 1.6996293
0.20260657 -0.16836326 0.45112708 0.20395102 -1.1809483 -1.8803997 -0.04229822 -0.4952864
-0.066339664 -0.9133372 0.8561818 -0.2507041 -0.43670514 0.05980587 -0.79767877 -0.6424661
0.39286134 2.2450578 -0.8527064 0.37896025 -2.2286935 0.5438072 -0.53052527 0.3958977
-0.14562419 -0.63046044 -0.8896543 -0.025514504 0.5903144 -0.85938925 1.1284122 -1.9492543
-0.41332757 1.1471415 0.4213794 -0.27630228 -0.84491366 0.4596044 -0.3419313 0.5246518
-0.68903375 -0.89262366 -0.93352413 -0.23704205 -1.0795636 0.5890305 1.3988411 0.037389535
-0.031216111 -0.11223612 -1.9975599 -1.5235853 0.4647814 1.5755378 -0.36450568 0.5779165
-1.1322181 -1.611572 0.31845692 0.27585196 -1.491697 0.5258653 1.9317709 0.65068156
-0.7006005 1.6616695 0.12520702 0.24475262 -1.388432 0.37905645 0.13357277 1.6430646
0.56133556 0.8112509 -0.14284079 1.7821532 0.48120767 0.18236983 -0.69181186 -0.8033948
0.84571457 -1.0473089 -0.4342942 -1.1707819 2.1546524 0.691772 -0.9900229 -1.6968418
-0.42121777 1.2669852 -0.83947915 0.73191917 -0.3122111 -0.55250996 0.54939806 0.8212885
-0.90044683 0.016510664 2.0071733 0.69438523 0.59896034 1.0949019 -0.07585346 1.1981248
-0.3547855 0.54319274 0.4669323 -0.64449084 -0.2368051 0.79799473 0.23354729 0.3248379
0.33189794 0.44979748 0.085119106 -0.36770636 -1.3773052 0.12666486 1.5406405 -0.6214379
0.77351713 1.278171 0.3780711 -0.19630335 0.087311715 -1.5004367 -0.02555573 2.306284
2.411194 0.74943346 -0.32363173 -1.4020655 -0.3216419 0.7319919 -0.06494312 -0.44596082
-0.20373072 0.45692113 0.8476197 1.4377204 -0.89398295 -0.03466725 0.93207127 0.7472604
0.19767885 1.8858542 -1.849091 -0.102501936 0.09448246 0.8567341 0.90644497 0.06944268
1.5814443 -1.9752058 1.6874646 1.2836013 0.20137466 -2.1261675 0.00946514 -0.40230456
-0.17445125 0.4170028 0.3216538 0.21354309 1.7842427 0.6108242 -0.056861404 0.26492625
-0.9097631 -0.27465108 -0.43575323 -0.27694812 0.3959865 0.7704631 -1.8369299 0.6363259
-1.0724702 0.8854352 0.22161603 0.37360454 1.7137467 -1.5343764 0.418069 0.5509237
-0.29283646 -0.13157783 1.8198678 2.175398 -0.5563424 -0.4577334 -0.95954025 -0.03152892
0.62939185 0.24777804 -0.043667223 -0.95353264 0.6465143 -0.84807014 0.6067485 0.5753468

fc3.bias f4 [10]
00000000: 69d9 2abd 76d2 8fbd 3b2a e1bd 8bfd a1bd
00000010: c024 6fbe 3bdc e1bd 7f61 ef3d 7797 96bd
00000020: 4c0e df3d 4043 aa3d
-0.041711245 -0.07022564 -0.10994383 -0.079096876 -0.23353863 -0.11028334 0.11688518 -0.073531084
0.10891399 0.08313608
