Pytorch1/rmspropModel.pt (torch, 212907 bytes, 6 tensors)

fc1.weight f4 [64, 784]
0	0x3fcda11a	1.6064789
1	0x3f47b2cf	0.78007215
2	0x4001d326	2.0285125
3	0x3fff67d3	1.995356
4	0x3fe855e4	1.8151212
5	0x3faf2779	1.3683921
6	0x3eadce3b	0.33946404
7	0x3fcddff7	1.6083974
8	0x3dc81b6a	0.09770854
9	0x3f2bdcb8	0.67133665
10	0x4002d4fc	2.0442495
11	0xbfea2a19	-1.8294097
12	0x3f083c23	0.5321676
13	0x3f52a505	0.8228305
14	0x4014aedf	2.3231733
15	0x3f6442a1	0.8916417
16	0xbcda3247	-0.026635302
17	0xbdb36ced	-0.0876101
18	0xbf484660	-0.78232384
19	0x3ea50498	0.32230067
20	0x3f792af8	0.9733119
21	0x3f8bf786	1.0934913
22	0xbe3faf7a	-0.18719283
23	0x40109a23	2.2594078
24	0x3e699a23	0.22812705
25	0x3f094dee	0.53634536
26	0xbf5947a5	-0.84874946
27	0x3f95e818	1.1711454
28	0x3f4a66ea	0.79063284
29	0x3fb6da50	1.4285374
30	0x3f7ff035	0.999759
31	0xbe022a84	-0.12711531
32	0x3f56e7ba	0.83947337
33	0xbd482ff3	-0.048873853
34	0xbf5ce6c0	-0.86289597
35	0xbf7abed1	-0.9794741
36	0x3f06809d	0.5254
37	0xbe3c98de	-0.18417689
38	0xbf9dde32	-1.2333434
39	0xbf8a69bf	-1.0813521
40	0x3f930c60	1.1488152
41	0xbf0b7a3d	-0.54483396
42	0xbe0d8929	-0.13821854
43	0xbf882516	-1.0636318
44	0x3f085fbf	0.53271097
45	0xbf9cc641	-1.2248002
46	0xbe31c104	-0.17358786
47	0xbecabbde	-0.39596456
48	0xbf1aa26f	-0.60404104
49	0xc001e498	-2.0295773
50	0x404074c0	3.0071259
51	0x40149318	2.321478
52	0xbf138a57	-0.57632965
53	0x3fcf922b	1.6216482
54	0x3e79af42	0.24383262
55	0x3f016563	0.5054533
56	0x3ee2e679	0.44316462
57	0x3fa15776	1.2604816
58	0x3fe835b3	1.8141388
59	0x3f061fdd	0.5239237
60	0x3e70c1a8	0.23511374
61	0x3d99fb28	0.075186074
62	0xbfa13458	-1.2594099
63	0x3eeedc11	0.46652272
64	0x3eaa9f39	0.33324602
65	0xbeb1b80d	-0.34710732
66	0xbf4b9b4e	-0.7953385
67	0x3e39e78d	0.18154736
68	0xbef5cae7	-0.48006365
69	0x3fa47c85	1.28505
70	0x3ed3a680	0.41337967
71	0xbfe83ca8	-1.8143511
72	0xc02d5c71	-2.7087672
73	0x3f04c14e	0.5185746
74	0x3f4f346d	0.8093937
75	0xbf264184	-0.6494372
76	0xbf30899c	-0.68959975
77	0x3fc901a9	1.5703632
78	0x3fdd91e4	1.7310147
79	0x3f2000b4	0.6250107
80	0x3d5a6edf	0.05332839
81	0x3fa1a1f8	1.2627554
82	0x3f791d40	0.97310257
83	0x3f58dcb7	0.84711784
84	0x3fd11fce	1.6337831
85	0x3fd5deee	1.6708658
86	0x3ff5b8b6	1.9196994
87	0x3f28c7b7	0.6592974
88	0x3fdbd709	1.7174999
89	0x403ac418	2.9182186
90	0xbf14cefd	-0.5812834
91	0x3e799801	0.24374391
92	0xbe8ac93c	-0.27106655
93	0xbf3f3593	-0.7469112
94	0xbf254c51	-0.64569575
95	0xbf0fe42a	-0.56207526
96	0xbe472a09	-0.19449629
97	0xbf84cb11	-1.0374471
98	0xbf260474	-0.64850545
99	0xbc407307	-0.011746175
100	0xbdf98038	-0.12182659
101	0x3e38145f	0.17976521
102	0xbf56ecb1	-0.8395491
103	0xbff0fcd7	-1.8827161
104	0xbee6775f	-0.45012948
105	0x403c857b	2.945647
106	0xbfddd0e5	-1.7329375
107	0xbf111f64	-0.56688523
108	0x3f92e8ec	1.1477332
109	0xbf29a5e9	-0.66268784
110	0x3f904aa1	1.1272775
111	0x405d92d7	3.4620874
112	0x3f9f7a05	1.2459112
113	0xbec1dda3	-0.37864408
114	0xbf66fb58	-0.9022727
115	0x3fa44015	1.2832056
116	0x3edb02d9	0.4277561
117	0x3feee6f4	1.8664231
118	0x3f0d1e9b	0.55124825
119	0xbf31a7d0	-0.69396687
120	0xbec3945b	-0.38199124
121	0x3f85f03f	1.0463942
122	0x3ed9176b	0.4240068
123	0xbdc3083b	-0.09523054
124	0x3faedf24	1.3661847
125	0xbd22677c	-0.03964947
126	0x3f583a4d	0.8446396
127	0xbeda0cec	-0.42587984
128	0xbfce6ffd	-1.6127926
129	0x3f1bd2e9	0.608687
130	0xbe9c9484	-0.30582058
131	0xbf2fa9ca	-0.6861845
132	0xbe3d15e4	-0.18465382
133	0xbf2a8f98	-0.66625357
134	0xbea94381	-0.33059314
135	0x3fe49f94	1.7861199
136	0xbe62aa3b	-0.2213525
137	0xbfcb6e5b	-1.5893053
138	0x3fbc4592	1.4708731
139	0x3f9a9d0a	1.2079175
140	0x3f0c84a6	0.54889905
141	0x3facd255	1.3501688
142	0xbe2f5806	-0.17123422
143	0xbf084dc5	-0.53243667
144	0xbf660b3d	-0.898609
145	0x3f1580de	0.5839976
146	0x3b243dbd	0.0025061213
147	0xbea031ac	-0.31287897
148	0xbfbbb28b	-1.4663862
149	0xbf21487c	-0.6300123
150	0x3ee07417	0.4383857
151	0xbfacf73c	-1.351295
152	0xbee6beb4	-0.4506737
153	0xbf510927	-0.8165459
154	0xbec51e77	-0.38499805
155	0x3eb26225	0.34840503
156	0x3eba6400	0.3640442
157	0x3e31d447	0.17366134
158	0xbe8c18bb	-0.27362618
159	0xbf8068b8	-1.0031958
160	0xbf904e5a	-1.1273911
161	0x3f935e67	1.1513184
162	0x3f3e7b5b	0.74406976
163	0xbf8d0e95	-1.1020075
164	0x3f89859f	1.0743903
165	0x3e81444c	0.2524742
166	0x3e61fecd	0.22069855
167	0xbf71840f	-0.9434213
168	0x3fecaaf4	1.8489671
169	0x3f07267f	0.52793115
170	0x3f95d52b	1.1705679
171	0x3e8ac2c7	0.27101728
172	0xbee67c79	-0.4501684
173	0xbfc06aa8	-1.5032549
174	0xbfdb5189	-1.7134258
175	0x3fc74a5c	1.5569568
176	0xbe5ab602	-0.21358493
177	0x3e918a55	0.2842585
178	0x3eb4e3e5	0.3533012
179	0xbf588f53	-0.84593695
180	0xbf50dfb8	-0.8159137
181	0xbfb70683	-1.4298862
182	0xbf2a3a37	-0.6649508
183	0xbeeddeba	-0.4645899
184	0x3f44644f	0.7671556
185	0xbf53c8b9	-0.82728153
186	0xbf5c042a	-0.85943854
187	0xbfc0f8b8	-1.5075903
188	0xbf07dd0f	-0.53071684
189	0xbf36ab40	-0.71355057
190	0xbe68c8cc	-0.22732848
191	0x3f87216f	1.0557078
192	0x3f004aa2	0.5011388
193	0xbebcc9c5	-0.36872688
194	0x3f67fe93	0.90622824
195	0xbe45624f	-0.19275783
196	0xbfc0fb5b	-1.5076708
197	0x3f522966	0.8209442
198	0x3e9d0082	0.3066445
199	0xbf4d8e54	-0.802953
200	0x3fdd5eaa	1.7294514
201	0x3f307b8d	0.68938524
202	0xbe8d7c2a	-0.27633792
203	0x3f3696c7	0.7132382
204	0xbf7c687f	-0.9859695
205	0xbeac0b2e	-0.3360228
206	0xbe936eb9	-0.28795412
207	0x3fb5f530	1.421545
208	0xbe9ac813	-0.3023077
209	0x3fa4bdda	1.2870438
210	0xbf343ca8	-0.70405054
211	0xc04196ad	-3.0248215
212	0xbe48d5ed	-0.19612856
213	0x3e654f4c	0.2239353
214	0xbf43041e	-0.7617816
215	0xbf47e856	-0.7808889
216	0xbf12a7a2	-0.5728704
217	0x3fb850e0	1.4399681
218	0xc003b4a1	-2.0578997
219	0xbed51c6b	-0.41623244
220	0xc01c6bc6	-2.444078
221	0xbf9b042c	-1.2110648
222	0x3e79a337	0.24378668
223	0x3fac4d2d	1.3461052
224	0x3f676d2d	0.90400964
225	0x3f8e544e	1.1119478
226	0x3e96f186	0.29481143
227	0x3f02bcb0	0.51069164
228	0x3f5a2dd7	0.85226196
229	0xbee2c81d	-0.442933
230	0x3f1cc877	0.61243385
231	0xbf923614	-1.1422753
232	0xbee96451	-0.45584348
233	0xbf55959b	-0.83431405
234	0x3ea6bd14	0.3256613
235	0xbf8e4093	-1.1113456
236	0x3eb4bd52	0.3530069
237	0x3ea05937	0.31318066
238	0xbfbe70fd	-1.4878231
239	0xbed6d973	-0.41962776
240	0xbf690960	-0.9102993
241	0xbe1389bb	-0.14408009
242	0xbf63f007	-0.8903813
243	0xbf4525d4	-0.77010846
244	0xbf0b1def	-0.5434255
245	0x3ef1697f	0.471508
246	0xbd387708	-0.045035392
247	0xbfb1fc14	-1.3905053
248	0xbe707ce7	-0.23485146
249	0x3eb22d1a	0.34800035
250	0xbee8b88a	-0.45453292
251	0x40211eb9	2.5175002
252	0x3fb7e77d	1.436752
253	0x3fab7f4a	1.339822
254	0xbfb1564f	-1.3854464
255	0x3d314886	0.043282054

fc1.bias f4 [64]
0	0xbf89ca09	-1.0764781
1	0xbf5accee	-0.8546895
2	0xbf1e3a08	-0.618073
3	0xbf911b99	-1.1336547
4	0xbf5b1448	-0.8557782
5	0x3dae2bc3	0.08504441
6	0xbf26348b	-0.64923924
7	0xbf02abbd	-0.510433
8	0xbf76df93	-0.964349
9	0xbf7594da	-0.95930254
10	0xbf5c4717	-0.86045974
11	0xbf1ece12	-0.6203319
12	0xbf5c3189	-0.86013085
13	0xbf71a2e2	-0.94389164
14	0xbf54afe5	-0.83080894
15	0xbf23c6ec	-0.63975406
16	0xbed7fa6e	-0.4218325
17	0xbeff862a	-0.49907047
18	0xbef3dfd6	-0.4763171
19	0xbf6345a2	-0.88778126
20	0xbed48a81	-0.4151192
21	0xbf5834d0	-0.84455585
22	0xbf6728e0	-0.90296745
23	0xbf90f22e	-1.1323907
24	0xbf1375e2	-0.5760175
25	0xbee539b5	-0.4477059
26	0xbf1fff04	-0.624985
27	0xbf1d3296	-0.61405313
28	0x3eddbb03	0.4330674
29	0xbf455471	-0.7708197
30	0xbe9fea0b	-0.31233248
31	0xbee0340e	-0.43789715
32	0xbf5b613c	-0.8569524
33	0xbf0fe6ab	-0.56211346
34	0xbf161264	-0.5862181
35	0xbf33887d	-0.7013014
36	0xbf8289c0	-1.0198288
37	0xbf401380	-0.75029755
38	0xbe397ffa	-0.18115225
39	0xbe311652	-0.17293671
40	0xbf49c747	-0.788197
41	0xbf5743ff	-0.8408813
42	0xbec061db	-0.37574658
43	0xbf8d3784	-1.1032567
44	0xbf5bb06d	-0.8581608
45	0xbf6086cd	-0.8770569
46	0xbf58d1c0	-0.84695053
47	0xbf341106	-0.70338476
48	0xbf82fe7c	-1.0233912
49	0xbef8e14c	-0.48609388
50	0xbf2ccbe8	-0.67498636
51	0xbf67d473	-0.90558547
52	0xbf9b34a8	-1.2125444
53	0xbf654452	-0.89557374
54	0xbf860969	-1.0471622
55	0xbf5c52bb	-0.86063737
56	0xbf5ea6ec	-0.8697345
57	0xbf8be1f5	-1.0928332
58	0xbf209a85	-0.6273578
59	0xbf6c75d5	-0.923673
60	0xbf1eccd5	-0.620313
61	0xbf0a8215	-0.5410474
62	0xbf41f9d0	-0.7577181
63	0xbf101881	-0.5628739

fc2.weight f4 [32, 64]
0	0xbe3cc1cb	-0.18433301
1	0xbf3c476c	-0.7354648
2	0x3f39c801	0.72570807
3	0x3f8ea04f	1.1142672
4	0xbe5a774e	-0.21334574
5	0xbc735250	-0.014851168
6	0xbfb19b75	-1.3875567
7	0xbf2018d0	-0.6253786
8	0xbea5bd67	-0.32371065
9	0xbf5ce51c	-0.86287093
10	0xbeea27dc	-0.45733535
11	0x3f981518	1.1881437
12	0xbffc63ce	-1.9717958
13	0xbd948f1c	-0.072538584
14	0x3db99f4f	0.09063589
15	0xbe382601	-0.17983247
16	0x3e31df91	0.1737044
17	0x3e05f5d8	0.13082063
18	0x3f7b7979	0.9823223
19	0xc005753d	-2.0852807
20	0xbedc12b1	-0.4298301
21	0xbe3ed350	-0.18635297
22	0x3f1c5538	0.61067533
23	0x3fc8e05e	1.5693471
24	0x3eac9926	0.33710593
25	0xbee6bfb1	-0.45068124
26	0xbf137c11	-0.57611185
27	0x3e250834	0.1611641
28	0xbf3407e0	-0.70324516
29	0xbf864e0d	-1.0492569
30	0xbfa369ae	-1.2766626
31	0xbf67dd84	-0.9057238
32	0x3fd71363	1.6802791
33	0x3f5e8266	0.8691772
34	0xbff0eec0	-1.8822861
35	0x3e35f91d	0.1777081
36	0xbdcbe2d0	-0.099553704
37	0x3f93867f	1.152542
38	0xbf36e45d	-0.71442205
39	0xbf044064	-0.5166075
40	0xbe29aed0	-0.16570592
41	0xbf4ce38f	-0.80034727
42	0xbd39cf7c	-0.04536389
43	0xbf8d1838	-1.1023016
44	0x3e373cf2	0.17894343
45	0xbec56acd	-0.38558045
46	0x3e28f8fe	0.16501233
47	0xbc738788	-0.014863856
48	0xbf1078a5	-0.5643409
49	0x3e8f12a0	0.27943897
50	0x3fac7fe0	1.3476524
51	0x3cfb8dbc	0.030707233
52	0x3df0434a	0.11731584
53	0x40027d58	2.0389004
54	0xbf313fe4	-0.69238114
55	0x3f4bd743	0.7962534
56	0xbef456c1	-0.47722438
57	0xbf5565d2	-0.8335849
58	0x3f351140	0.70729446
59	0xbf650395	-0.8945859
60	0xc019f233	-2.4054077
61	0xbfb65c6d	-1.4246956
62	0x3f773e97	0.9657988
63	0xbecb4f3a	-0.39708883
64	0x3f41f0ec	0.7575824
65	0xbf95db64	-1.1707578
66	0xbe13c90e	-0.14432165
67	0xbde32a83	-0.11092093
68	0xbf7e81e0	-0.99416924
69	0x3f188f2f	0.5959348
70	0x3f491d16	0.78560007
71	0x3e5844cb	0.21119992
72	0xbfb7a625	-1.4347578
73	0xbf1b732a	-0.607226
74	0xbfda913f	-1.7075576
75	0xbf14172a	-0.57847846
76	0xbda8407a	-0.08215423
77	0xbfc54fe6	-1.5415008
78	0xbd30820f	-0.043092784
79	0xbf6e3c17	-0.9306044
80	0xc00bf771	-2.1869776
81	0xbf845354	-1.033793
82	0xbeefd147	-0.46839353
83	0xbf8dfc6e	-1.109266
84	0xbf16b737	-0.58873314
85	0x3f35c6d9	0.7100654
86	0x3fc7bcbc	1.5604472
87	0x3f5c72c1	0.861126
88	0xbec63ab4	-0.38716662
89	0x3ebbadf8	0.36656165
90	0xc01bd08c	-2.4346037
91	0xbf91a32d	-1.1377922
92	0xbeaaba48	-0.33345246
93	0xbeec4817	-0.4614875
94	0xbf6c60eb	-0.92335385
95	0xbf3c97f6	-0.73669374
96	0x3f28d1b9	0.6594501
97	0x3e6aebcc	0.22941512
98	0xbf1de5b1	-0.61678606
99	0xbee5d0f8	-0.44885993
100	0x3f38c5ba	0.72176707
101	0xbf05d22e	-0.52273834
102	0xbe4502e6	-0.19239387
103	0x3df77e42	0.12084629
104	0x3fa0fe7f	1.2577666
105	0xbf8b5758	-1.088603
106	0xbd2b5b75	-0.041835267
107	0x3e2d0976	0.1689814
108	0xbf79caac	-0.9757488
109	0x3f873aee	1.0564859
110	0x3f5eb30f	0.8699197
111	0xbe891813	-0.2677618
112	0x3fa370b1	1.2768766
113	0xbee77297	-0.45204613
114	0x3f8e6287	1.1123818
115	0xbfb30abf	-1.3987654
116	0xbf095297	-0.5364165
117	0x3c82578c	0.015910886
118	0x3f32d339	0.6985355
119	0x3efc6d8d	0.4930233
120	0x3feb0623	1.8361248
121	0xbe29a38f	-0.16566299
122	0x3d81f640	0.063457966
123	0xbf0fff0c	-0.56248546
124	0x3d737e37	0.05944654
125	0xbee9ca47	-0.45662138
126	0xbfb1910a	-1.3872387
127	0xbfeed8ef	-1.8659953
128	0x3efe680b	0.49688753
129	0xbffd1034	-1.977057
130	0x3f0934d2	0.5359622
131	0xbd61ad01	-0.05509663
132	0xbe83d3c6	-0.25747508
133	0xbeb90ba0	-0.36141682
134	0x3ebc7318	0.3680656
135	0x3d18e4de	0.03732764
136	0xbf047f4b	-0.51756734
137	0x3cc7e320	0.024400294
138	0x3ffac1fb	1.9590448
139	0xbf16f854	-0.5897267
140	0xbe113f8f	-0.14184402
141	0xbecca53e	-0.3996982
142	0xbf50c005	-0.81543
143	0xbfac05aa	-1.3439229
144	0xbec4441f	-0.38333222
145	0xbdb595a8	-0.08866435
146	0x3f77535e	0.96611583
147	0x3edc9998	0.43085933
148	0xbff8063f	-1.9376906
149	0xbf88d18d	-1.068895
150	0xbf041dd0	-0.5160799
151	0xbfaa833f	-1.3321303
152	0xbfa7a008	-1.3095713
153	0xbf2e71ec	-0.6814258
154	0x3ee605b5	0.4492623
155	0xbf29099a	-0.66030276
156	0xbf452105	-0.7700351
157	0xbfbe04c9	-1.484521
158	0xbfbd977e	-1.4811857
159	0xbfce6d3f	-1.6127089
160	0xc0267fdc	-2.601554
161	0x3fecd9a9	1.8503925
162	0xbe113897	-0.14181744
163	0x3eba3e76	0.3637578
164	0xbf9bf625	-1.2184492
165	0xbf546782	-0.8297044
166	0xbe9e6d5e	-0.30942816
167	0xbf8cf925	-1.1013533
168	0xbf55bc5e	-0.8349055
169	0xbf05a0c6	-0.52198446
170	0xbff696b7	-1.9264745
171	0xc044c1c1	-3.0743258
172	0xbf59dcca	-0.8510252
173	0xbff1d683	-1.8893589
174	0x3daa6de4	0.08321741
175	0xbf995312	-1.1978476
176	0x3d420c06	0.047374748
177	0xbf2ef8d7	-0.6834845
178	0x3e173285	0.14765365
179	0x3f525ec7	0.8217587
180	0x3f9312a5	1.1490065
181	0x3e7ce8fa	0.24698249
182	0x3ea8d125	0.32972065
183	0xbf597928	-0.84950495
184	0xbeb1bc7c	-0.34714115
185	0xbfe7ca4f	-1.8108615
186	0xbcc46fec	-0.02397915
187	0x3f58a119	0.84620816
188	0x3e722a52	0.23648956
189	0xbe97930e	-0.2960438
190	0x3f2d29fe	0.676422
191	0xbfa770f7	-1.3081349
192	0x3f3239a0	0.6961918
193	0xbff9dc61	-1.9520379
194	0x3f026477	0.5093455
195	0x3fb59428	1.4185839
196	0x3fa8e8e3	1.3196071
197	0xbf34efc1	-0.70678335
198	0x3e4528d6	0.19253859
199	0xbf73fd9e	-0.95308864
200	0xbf86f307	-1.0542916
201	0xbf4a9995	-0.791406
202	0x3f510104	0.81642175
203	0xc00462d3	-2.0685318
204	0x3f822386	1.0167091
205	0x3e575306	0.21027765
206	0xbfa6bbf1	-1.3026105
207	0xbdef2fa8	-0.116790116
208	0xc03c26cb	-2.9398677
209	0xbdd3c163	-0.1033962
210	0xbf6fa656	-0.93613183
211	0xbfc9d99d	-1.5769535
212	0xbe5930f1	-0.21210076
213	0x3bc57478	0.006025847
214	0x3f01c9b9	0.5069843
215	0xbea0e3ac	-0.314237
216	0xbde87943	-0.11351254
217	0xbf837039	-1.0268623
218	0xbf3a9c03	-0.72894305
219	0x3e8cc2f0	0.27492476
220	0xbfbacbe6	-1.4593475
221	0x3f58c066	0.84668577
222	0xbf836a5f	-1.0266837
223	0x3dceb77d	0.10093591
224	0x3f5722d0	0.84037495
225	0x3f93ae40	1.1537552
226	0xbfa826cf	-1.3136843
227	0xbec55378	-0.38540244
228	0xbddf61fc	-0.10907361
229	0xbe81e211	-0.25367787
230	0xbffe90dc	-1.9887958
231	0xc0222997	-2.5337884
232	0xbebc1336	-0.36733407
233	0x3f7c396c	0.9852512
234	0xbed9551b	-0.42447743
235	0x3f1c3344	0.61015725
236	0x3eb91e2d	0.36155835
237	0xbe667549	-0.22505678
238	0x3ea99fe7	0.33129808
239	0xbe97af3e	-0.29625887
240	0x3e9c2b86	0.30501956
241	0xbe0d39cc	-0.13791579
242	0xbf2a6c07	-0.66571087
243	0xc01421b3	-2.3145568
244	0x3d0f708c	0.035019442
245	0x3e8fc5d9	0.28080633
246	0xbf80147e	-1.0006254
247	0x3f1bb5af	0.608241
248	0xbe428152	-0.18994644
249	0xbebbf872	-0.36712986
250	0x4002fc64	2.0466547
251	0x3f96a4af	1.1769007
252	0x3fa274dc	1.2691913
253	0xbf9bcd7d	-1.2172085
254	0x3f051582	0.51985943
255	0xc00d7320	-2.2101517

fc2.bias f4 [32]
0	0xbf925433	-1.1431946
1	0xbf9169de	-1.1360433
2	0xbfbd567b	-1.4792017
3	0xc01143c2	-2.2697606
4	0xc017ada9	-2.3699744
5	0xc006dabc	-2.1071005
6	0xbfe19c56	-1.7625835
7	0xbe84f1ee	-0.25965828
8	0xc015ff9e	-2.3437266
9	0x3e7b7614	0.24556762
10	0xc0183ab2	-2.3785825
11	0x3f98d4b4	1.1939912
12	0xbf8827fc	-1.0637202
13	0xbfe9f9db	-1.8279375
14	0xc02853ea	-2.6301217
15	0xbea6f5c2	-0.32609373
16	0xbfdc5543	-1.721352
17	0xbd62aeb4	-0.05534239
18	0xbff0b548	-1.8805323
19	0xbec6892b	-0.38776526
20	0x3f5c0091	0.85938364
21	0xc025c41b	-2.5900943
22	0xbf9158d5	-1.1355234
23	0xbebab484	-0.36465847
24	0x3fa50b26	1.2894027
25	0x3f6665f0	0.89999294
26	0xbfeac411	-1.8341085
27	0xbf847547	-1.034829
28	0xbf99911d	-1.199741
29	0xbfda2986	-1.7043922
30	0xbf7cc2f4	-0.98734975
31	0xbe5b4990	-0.2141478

fc3.weight f4 [10, 32]
0	0xbeac961a	-0.33708268
1	0xbf53dae1	-0.8275586
2	0xbed7c10a	-0.42139465
3	0x3f56b4f4	0.8386986
4	0xbec7e775	-0.39043775
5	0x3d3a63a7	0.045505192
6	0x3f222afb	0.63346833
7	0x3f1a9498	0.60382986
8	0x3ecf3c90	0.40475893
9	0x3f1e3948	0.61806154
10	0x3f0eac3e	0.5573157
11	0x3e80419d	0.2505006
12	0xbecaf30e	-0.3963856
13	0x3f37bf38	0.7177615
14	0x3eec981b	0.46209797
15	0xbe044cd4	-0.12919933
16	0xbf9e55ef	-1.2369975
17	0x3f867e5f	1.0507315
18	0x3d16a106	0.036774658
19	0xbd8d13c3	-0.06888535
20	0xbf212a6a	-0.62955344
21	0x3f9235d7	1.1422681
22	0xbd50321d	-0.05082904
23	0x3eb48edb	0.3526524
24	0x3f082ba7	0.5319161
25	0xbe53b0a9	-0.20672859
26	0x3f037ac1	0.5135918
27	0x3e967f20	0.29393864
28	0x3ec5df40	0.3864689
29	0x3e8ca76e	0.2747149
30	0x3f04ffdd	0.51952916
31	0x3e1ce004	0.1531983
32	0x3de26ec7	0.11056285
33	0x3f04ed95	0.5192502
34	0x3ee8bddc	0.4545735
35	0x3f968c34	1.1761537
36	0xbf14f927	-0.58192676
37	0xbf0ef580	-0.55843353
38	0x3dfce42f	0.1234821
39	0xbe73a3cb	-0.23792951
40	0x3eb60886	0.35553378
41	0xbf47d760	-0.7806301
42	0x3ea254cb	0.31705317
43	0xbc89b0dd	-0.016807968
44	0x3f60c464	0.8779967
45	0x3f2df568	0.67952585
46	0x3fbee98c	1.4915023
47	0x3f0891d4	0.53347516
48	0x3f4ce368	0.80034494
49	0xbe6ea983	-0.23306851
50	0x3ee66459	0.44998434
51	0x3e99306f	0.29919764
52	0xbec3b2e1	-0.3822241
53	0xbf770948	-0.9649854
54	0x3ee379a6	0.44428748
55	0xbd211a2e	-0.039331608
56	0x3f1f8659	0.62314373
57	0xbd22617b	-0.039643746
58	0x3f20bb49	0.62785774
59	0xbf5f9e0a	-0.87350523
60	0xbf7620e8	-0.9614396
61	0x3eacdfda	0.33764535
62	0x3e7c33fe	0.24629208
63	0xbf4b0b6c	-0.79314303
64	0xbbc51994	-0.006015012
65	0xbe1cfbe8	-0.1533047
66	0xbf50b7de	-0.8153056
67	0xbef79734	-0.48357546
68	0xbf73224e	-0.9497422
69	0x3e60af2c	0.21941823
70	0x3f1cfe93	0.6132595
71	0xbdc7728e	-0.097386464
72	0xbfa4f407	-1.2886971
73	0x3ee874f0	0.45401716
74	0x3f682589	0.90682274
75	0x3f5c7e1f	0.86129946
76	0x3f4b76e2	0.79478276
77	0x3f19385d	0.5985163
78	0x3e202657	0.15639625
79	0x3e23d69e	0.15999839
80	0xbf14c83f	-0.5811805
81	0x3efabb5c	0.4897107
82	0x3e646d55	0.22307332
83	0xbeec56ea	-0.4616006
84	0xbdaeda6b	-0.08537754
85	0x3fe4e24a	1.7881558
86	0x3e391d81	0.18077661
87	0x3ee46216	0.44606084
88	0x3e29366b	0.16524665
89	0xbe6450e4	-0.22296482
90	0x3f183214	0.59451413
91	0x3ec14f7a	0.37755948
92	0x3e1c9e4f	0.15294765
93	0x3ee14ac0	0.44002342
94	0x3ee6c7e2	0.45074373
95	0x3b6f7b4c	0.0036541997
96	0x3c0a8744	0.008455101
97	0xbf847eca	-1.0351193
98	0x3ed8d0cf	0.42346808
99	0xbf7eff49	-0.99608284
100	0xbf0839d1	-0.5321322
101	0xbe53d369	-0.20686115
102	0xbe68945d	-0.22712846
103	0x3f8e2807	1.1105965
104	0x3de3ead2	0.11128773
105	0xbeae3d3b	-0.3403109
106	0xbe151eaa	-0.14562479
107	0x3eef7daa	0.46775562
108	0x3fc1998c	1.5124984
109	0x3e80e7e4	0.25176919
110	0xbfd2467c	-1.642776
111	0x3f051907	0.51991314
112	0x3f11d083	0.5695879
113	0x3dbf90fa	0.09353824
114	0x3ead283e	0.33819765
115	0x3d818088	0.063233435
116	0xbf1cfe46	-0.6132549
117	0xbe3e42e6	-0.18580207
118	0x3e882953	0.26594028
119	0x3f151645	0.58237106
120	0x3f3905de	0.7227458
121	0x3cb58d24	0.022162028
122	0xbe573411	-0.21015956
123	0x3f5dc679	0.8663097
124	0x3d20d40e	0.03926473
125	0x3ed84616	0.4224097
126	0x3f643606	0.89144933
127	0xbf214472	-0.62995064
128	0xbe3efb79	-0.18650617
129	0x3d22e700	0.03977108
130	0x3f17561b	0.5911576
131	0xbdd3cec5	-0.103421725
132	0xbee7c56a	-0.45267802
133	0x3e18d542	0.14925101
134	0x3f5a0524	0.85164094
135	0xbc2e37c0	-0.010633409
136	0x3f2c5d08	0.67329454
137	0x3e8dce13	0.27696285
138	0xbebc8199	-0.36817625
139	0x3f8ecc89	1.1156169
140	0xbdaf4fe4	-0.0856016
141	0x3d99636c	0.07489666
142	0xbea5c7a9	-0.3237889
143	0xbe898400	-0.2685852
144	0x3ea9d6f5	0.33171812
145	0x3f25a877	0.6471018
146	0x3ebb6210	0.36598253
147	0xbee8a2b0	-0.4543662
148	0x3d0b1de6	0.03396406
149	0x3e88bf50	0.2670846
150	0x3e969b85	0.29415527
151	0x3ea98325	0.33107868
152	0x3f3d51ca	0.73952925
153	0xbdbcd342	-0.09219982
154	0x3eff6602	0.49882513
155	0x3f1e3851	0.6180468
156	0x3de7f034	0.11325112
157	0x3d0f3b08	0.034968406
158	0xbe2012cb	-0.15632169
159	0xbef8658a	-0.48514968
160	0x3f5033b4	0.8132889
161	0xbf7be657	-0.98398346
162	0x3e44e732	0.19228819
163	0xbf86c476	-1.0528705
164	0x3f108ca6	0.5646461
165	0x3f1a7f77	0.60350746
166	0xbe811e1b	-0.2521828
167	0xbe09bcc2	-0.13450912
168	0xbec7b2b5	-0.3900353
169	0x3f326132	0.6967956
170	0xbe4c3065	-0.19940336
171	0xc023e640	-2.5609283
172	0x3ee04c50	0.43808222
173	0x3f2ade8b	0.66745824
174	0x3e3bfcce	0.18358156
175	0x3ebf9f31	0.3742614
176	0x3f3479dd	0.7049845
177	0x3d9c8f5f	0.07644533
178	0x3f0e8e17	0.5568556
179	0xbfe316b7	-1.7741307
180	0xc0167585	-2.3509228
181	0x3f798db1	0.9748183
182	0xbee263a7	-0.44216654
183	0xbf0901e4	-0.5351851
184	0xbf0392e2	-0.51396
185	0xbed9076b	-0.42388472
186	0x3f64acf0	0.8932638
187	0xbf87c549	-1.0607082
188	0x3f3b3319	0.73124844
189	0xbcbde016	-0.023178142
190	0x3f7d4452	0.98932374
191	0x3e29d91b	0.16586725
192	0xbc2b8319	-0.010468268
193	0xbed550ac	-0.4166311
194	0x3ec86142	0.39136702
195	0x3d31778a	0.043326892
196	0xbed35707	-0.41277334
197	0x3e5f42d2	0.21802834
198	0x3dc0e0c1	0.094178684
199	0x3e642e2c	0.22283238
200	0x3f24f3dc	0.644346
201	0x3ef9dbec	0.488006
202	0xbe52f8f4	-0.2060278
203	0x3f31ae3b	0.6940648
204	0x3f28008c	0.65625834
205	0x3e0610d3	0.13092355
206	0x3f23ab12	0.6393291
207	0xbf574bd5	-0.84100085
208	0x3f3a55ce	0.7278718
209	0x3fded1d8	1.7407789
210	0x3eafa31a	0.34304124
211	0xbeaa6786	-0.33282107
212	0xbea6269e	-0.32451338
213	0xbf8e3b16	-1.1111782
214	0x3f88108b	1.0630049
215	0x3eba74cb	0.3641723
216	0x3eee7d21	0.4657984
217	0xbe1905b7	-0.14943586
218	0x3f4c1ed0	0.79734516
219	0x3e059634	0.13045579
220	0x3e66441e	0.22486922
221	0x3e73db15	0.23814042
222	0x3ef3bf4c	0.47606885
223	0xbdd163c2	-0.102241054
224	0x3f431835	0.7620881
225	0xbf4ffc4e	-0.8124436
226	0xbecd16e2	-0.4005652
227	0x3ee84ee5	0.45372692
228	0x3f2f3e67	0.68454593
229	0xbf944ff3	-1.1586899
230	0x3ef5dc4e	0.48019642
231	0xbfa90828	-1.3205614
232	0x3e1a7385	0.1508313
233	0x3f267e03	0.6503603
234	0x3f4c1266	0.79715574
235	0xbf51f6a8	-0.8201699
236	0xbf2f1434	-0.683902
237	0x3f3ff9a5	0.749903
238	0x3fc77660	1.5583
239	0x3d81c11a	0.06335659
240	0xbf61bb40	-0.88176346
241	0x3d7c2138	0.061555117
242	0x3f11ba82	0.56925213
243	0xc0367bfa	-2.851317
244	0xc0e475e3	-7.1393905
245	0x3edd1165	0.43177333
246	0xc00b13f6	-2.1730933
247	0x3f271b12	0.6527568
248	0xc07818dd	-3.8765175
249	0xbe61deed	-0.22057696
250	0x3f425eb1	0.7592574
251	0xbf1201ff	-0.57034296
252	0x3f0e0275	0.554725
253	0xbcb4985c	-0.022045307
254	0x3f08bc22	0.5341207
255	0x3e27e71d	0.16396756

fc3.bias f4 [10]
0	0x3ea802a1	0.32814506
1	0xbf853f58	-1.0409956
2	0x3f46ca20	0.7765217
3	0xbf246c61	-0.64227873
4	0x3ed8a73c	0.4231509
5	0x3f6a24ae	0.9146222
6	0x3fa2c2b1	1.2715665
7	0xbf937dba	-1.1522744
8	0xbf2e57a9	-0.6810251
9	0xc011a19f	-2.2754896
