Pytorch1/sgdModel.pt (torch, 212907 bytes, 6 tensors)

fc1.weight f4 [64, 784]
0	0x3e337289	0.1752416
1	0x3fcc5754	1.596415
2	0x3f9e35db	1.2360185
3	0x3dbfa74e	0.09358083
4	0xbf971e33	-1.1806091
5	0x3dbf225e	0.09332727
6	0xbf4fbe8b	-0.8115012
7	0x3d9cc7bf	0.07655286
8	0xbf3ca3fe	-0.7368773
9	0xbf1f21ba	-0.6216084
10	0x3fbb805a	1.4648545
11	0xbfac1291	-1.3443166
12	0xc022042f	-2.5315053
13	0xbedccd66	-0.43125457
14	0xbfd6a202	-1.6768191
15	0xbfcb8db1	-1.5902616
16	0xbebea466	-0.372348
17	0xbedecdd7	-0.43516418
18	0x3fcd8a3c	1.6057811
19	0x3eb7bf84	0.35888302
20	0xbfab225a	-1.3369858
21	0x3fa999da	1.3250077
22	0xbceecc59	-0.029150175
23	0xbf2e4568	-0.68074656
24	0xbfc1fd37	-1.51554
25	0x3fb4035e	1.4063528
26	0xbfbe9bcc	-1.4891295
27	0xbec133a8	-0.37734723
28	0xbe55da08	-0.20883954
29	0xbf848e25	-1.0355879
30	0xbe9b443e	-0.30325502
31	0xbf94db31	-1.1629392
32	0x3ef72b66	0.48275298
33	0xbf7e2b11	-0.99284464
34	0xbef27618	-0.47355723
35	0xbe87acff	-0.26499173
36	0x3fed175c	1.8522754
37	0x3eb3b1a3	0.35096464
38	0x3fa90d40	1.3207169
39	0xbf5f683d	-0.8726843
40	0x3f898eb0	1.074667
41	0xbf56eb67	-0.83952945
42	0xbf925d59	-1.1434737
43	0x3f64f2a9	0.8943277
44	0x3e19b120	0.15008974
45	0x3f3e6bae	0.74383056
46	0xbe5c2074	-0.21496755
47	0x3fcb7f6f	1.5898265
48	0xbda24372	-0.079230204
49	0x3d807fa4	0.062743455
50	0x3f71c184	0.94435906
51	0x3f62c784	0.88585687
52	0x3f051a04	0.5199282
53	0xbe0cf05a	-0.13763562
54	0x3f4b6a3b	0.7945897
55	0x3fce27c3	1.6105884
56	0xbe2db03b	-0.16961758
57	0xbf7c928b	-0.98661107
58	0x3f8222d3	1.0166878
59	0x3f3bc9eb	0.7335498
60	0x3f4bad63	0.7956144
61	0x3fc81d0f	1.5633868
62	0xbec35f22	-0.38158518
63	0x3eecb708	0.46233392
64	0xbf646f1a	-0.8923203
65	0xbfa1bf5b	-1.2636522
66	0x3f8836cc	1.0641723
67	0x3f1896ad	0.59604913
68	0x3f8a4fc0	1.0805588
69	0xbff1e42a	-1.8897755
70	0xbe56c244	-0.20972544
71	0x3dd32d99	0.103114314
72	0x3e16818b	0.14697854
73	0x3f8d893b	1.1057504
74	0xbf502c03	-0.81317157
75	0x3f94c08f	1.1621264
76	0x3fa652a8	1.2993975
77	0xbebd5a83	-0.36983117
78	0xc027bf9e	-2.6210704
79	0xbf1112cd	-0.5666931
80	0xbf021e7d	-0.5082777
81	0x3f599da6	0.8500618
82	0xbdb3a446	-0.08771567
83	0x3eacab07	0.33724234
84	0xbede91a7	-0.434705
85	0xbf2e0e51	-0.67990595
86	0x3f1dd1e2	0.6164838
87	0x3e837f4a	0.2568305
88	0x3d882064	0.06646803
89	0x3fa49989	1.2859355
90	0x3fd128d4	1.6340585
91	0x3f5a88c2	0.85364926
92	0x3fbe4f5b	1.4867967
93	0x3f8fb854	1.1228127
94	0x3fa0a5d5	1.2550608
95	0xbd1212b3	-0.035662364
96	0xbf01a36a	-0.50639975
97	0x3f5d9400	0.86553955
98	0x3f787fb8	0.97069883
99	0xbf91916d	-1.1372505
100	0x3f6c3318	0.9226546
101	0x3fb76435	1.4327456
102	0x3f302440	0.68805313
103	0xbe54f2f4	-0.20795804
104	0x405135bc	3.2689047
105	0x3ed74900	0.42047882
106	0x3e5be0b2	0.21472433
107	0x3dfb553d	0.12272117
108	0xbf05475e	-0.5206202
109	0xbe9dc4bc	-0.3081416
110	0xbe459790	-0.19296098
111	0xbe0402e3	-0.12891726
112	0x3f7abb54	0.9794209
113	0x3e6f5e14	0.23375732
114	0xbee4c52f	-0.4468169
115	0x3cd33484	0.025781877
116	0x3f75d74a	0.9603163
117	0x402603ff	2.593994
118	0x3d67302e	0.056442432
119	0x3f72c2ee	0.9482869
120	0x3f9dafa5	1.2319227
121	0xbfd9dcdf	-1.702053
122	0x3fa3094e	1.2737215
123	0x3f55e7bf	0.8355674
124	0x3ea09b32	0.31368405
125	0x3f79286c	0.97327304
126	0xbdd01cd3	-0.10161748
127	0xbe80dbdf	-0.25167748
128	0xbf9eba08	-1.2400522
129	0xbef26a81	-0.4734688
130	0x3e690d07	0.22758876
131	0x3da10349	0.07861955
132	0x3fcb9417	1.5904568
133	0xbf66f007	-0.9021
134	0x3f6eaf8e	0.93236625
135	0x3fd4c3df	1.6622275
136	0xbfd26bc3	-1.6439136
137	0xbfccea3c	-1.6008983
138	0x3ed84d96	0.42246693
139	0xbfdc1c70	-1.7196178
140	0xbf455baa	-0.77092993
141	0xbec0000b	-0.37500033
142	0xbfba0ddf	-1.4535483
143	0x3f9e4295	1.2364069
144	0x3f22206f	0.6333074
145	0x3fd9dfef	1.7021464
146	0x3ce75e2f	0.028243152
147	0x3cf64775	0.03006337
148	0x3fb76d43	1.4330219
149	0x3ef02b9f	0.4690828
150	0xbfa11d0c	-1.2586989
151	0xbf568e86	-0.83811224
152	0xbf04cfb7	-0.5187945
153	0x3fad9ab5	1.3562838
154	0xbf2c7975	-0.6737283
155	0x3f429675	0.7601083
156	0x3f46064e	0.7735337
157	0xbf7c6ce8	-0.9860368
158	0xbe824dae	-0.2544989
159	0xbff1ca83	-1.8889927
160	0xbf72e3e8	-0.9487901
161	0x3f980d03	1.1878971
162	0x3f15065b	0.5821282
163	0x3dcd90b1	0.10037363
164	0x3eccf78c	0.40032613
165	0x3e91d578	0.28483176
166	0xbf1c9f72	-0.61180794
167	0xbf5213d4	-0.82061505
168	0xbd7512ae	-0.059832267
169	0xbf9deca6	-1.2337844
170	0xbf90d135	-1.1313845
171	0xc010f442	-2.2649083
172	0x3f9ea121	1.2392923
173	0xbfbb62f3	-1.4639572
174	0xbf0190fc	-0.50611854
175	0xbf2a5b63	-0.66545695
176	0x3f291eb4	0.66062474
177	0xbfc88d1e	-1.5668066
178	0xbf140d51	-0.5783282
179	0x3e81f5e2	0.25382906
180	0x3eb360cc	0.35034788
181	0x3f849b8e	1.0359972
182	0xbf12dab8	-0.5736499
183	0x3ecb9215	0.3975989
184	0xbf89b0a7	-1.0757035
185	0x3ee2dc95	0.44308916
186	0xbf46c6ad	-0.77646905
187	0xbf02c897	-0.51087326
188	0xbfc392cc	-1.5279174
189	0xc0007301	-2.0070193
190	0x3f244fbf	0.6418418
191	0x3f2c5e3c	0.6733129
192	0x3f1b86a6	0.6075233
193	0x3e045090	0.12921357
194	0x3e2f4ff8	0.1712035
195	0xbf460b12	-0.7736064
196	0x3f8ae275	1.0850359
197	0xbe55d4e6	-0.20881996
198	0xbef66a81	-0.4812813
199	0x3e02a7cd	0.12759323
200	0x3f1fd67a	0.6243664
201	0xbec0377b	-0.37542328
202	0x3f043b22	0.5165273
203	0x3f5a565d	0.8528803
204	0xbf2f717f	-0.68532556
205	0x3ecfdb29	0.40596893
206	0xbe8ff5d3	-0.28117236
207	0xbe203b63	-0.15647654
208	0xbec2bbbc	-0.38033855
209	0xbe90684d	-0.28204575
210	0xbf5d5bfe	-0.86468494
211	0x3f26ec6a	0.6520449
212	0x3f06c2cd	0.5264099
213	0xbf3d86a9	-0.740336
214	0xbf1fab60	-0.6237087
215	0xbfdf1c6a	-1.7430546
216	0x3ea59e57	0.32347366
217	0x3f893e17	1.0722073
218	0xbfac7036	-1.3471744
219	0x3e8162b3	0.25270614
220	0x3f129446	0.572575
221	0x3d4d5010	0.05012518
222	0xbfe782fa	-1.8086846
223	0xbe7ac189	-0.2448789
224	0x3f96f0c6	1.1792228
225	0x3f8dd4d8	1.108058
226	0x3ee2d934	0.44306338
227	0x3fad41d5	1.3535715
228	0xbfae4dd2	-1.3617499
229	0xbebb6f34	-0.3660828
230	0xbee305b7	-0.44340298
231	0x3f589eb9	0.8461719
232	0xbf6c45b5	-0.92293864
233	0xbebaff6d	-0.36523
234	0x3f916a13	1.1360496
235	0x3f27e7e4	0.6558821
236	0xbfb55397	-1.4166135
237	0xbf034e6a	-0.51291525
238	0x3f651471	0.89484316
239	0x3e926e2a	0.28599674
240	0xbf6ff1f8	-0.9372859
241	0xbdd5b919	-0.10435695
242	0xbf5b507d	-0.8566969
243	0x3faf8517	1.3712491
244	0x3ea2802c	0.31738412
245	0xbd599507	-0.05312064
246	0x3f3a654d	0.7281082
247	0x3f6c5e35	0.9233125
248	0x3f0f4ad4	0.55973554
249	0x3f825a7d	1.0183865
250	0xbf4e1630	-0.80502605
251	0xc01528e7	-2.3306215
252	0x3efc7150	0.493052
253	0x3f0a08f9	0.5391994
254	0x3f817056	1.0112407
255	0xbf123753	-0.5711567

fc1.bias f4 [64]
0	0xbd7dd686	-0.061972164
1	0xbd170c13	-0.03687675
2	0x3e222565	0.15834577
3	0x3d9b11bf	0.07571744
4	0xbdef3293	-0.11679568
5	0xbd71cab2	-0.059031196
6	0x3d05a4bd	0.03262781
7	0xbc44c528	-0.012009896
8	0xbcf854d6	-0.03031389
9	0x3e27d956	0.16391501
10	0xbda7db02	-0.08196069
11	0xbe3be9c8	-0.18350899
12	0xbdbaadf3	-0.091152094
13	0xbe324934	-0.17410737
14	0xbc9cc654	-0.019137539
15	0xbd1f4031	-0.038879577
16	0xbdac81a2	-0.08423163
17	0xbc404d44	-0.011737172
18	0xbd12e6f0	-0.03586477
19	0xbd0a7c09	-0.033809695
20	0xbe0d1036	-0.13775715
21	0xbd85bb4e	-0.06529866
22	0x3e905c43	0.2819539
23	0xbd853513	-0.06504264
24	0xbc16b549	-0.009198495
25	0x3d9ccad6	0.076558754
26	0xbcfcf8ac	-0.030880295
27	0x3c891874	0.016735293
28	0xbdf54b4e	-0.11977254
29	0x3c4f416d	0.012649876
30	0x3e88c3e5	0.26711956
31	0xbd39c504	-0.045353904
32	0xbd2452fb	-0.0401182
33	0x3d818bde	0.06325506
34	0xbd208925	-0.03919329
35	0xbc6e5a3a	-0.014547879
36	0x3d39725d	0.04527508
37	0xbd5570e3	-0.05210961
38	0xbbf8f28c	-0.007597273
39	0xbaefd382	-0.0018297287
40	0xbd8b5d9c	-0.06804964
41	0xbcec2c88	-0.028829828
42	0xbdaab7ff	-0.08335876
43	0xbc950219	-0.018189477
44	0xbbcf6780	-0.006329477
45	0xbe371305	-0.17878349
46	0x3dea1ca9	0.11431248
47	0xbb6c5225	-0.0036059704
48	0xbe33a967	-0.1754509
49	0x3cf4d0f2	0.02988479
50	0x3d6573d0	0.05601865
51	0x3d002ac3	0.03129078
52	0xbe173173	-0.14764957
53	0xbd5ed6fc	-0.054404244
54	0xbd565ae1	-0.052332763
55	0xbdf36cb5	-0.118859686
56	0xbcaa0a5e	-0.020756897
57	0x3ba3f144	0.0050031263
58	0x3b206832	0.0024476168
59	0xbe15e2f8	-0.14637363
60	0xbd0dc822	-0.03461469
61	0xbb1856a2	-0.0023244997
62	0x3e920e16	0.28526372
63	0x3e6ea3ff	0.23304747

fc2.weight f4 [32, 64]
0	0x3e61c96b	0.22049491
1	0xbf4f7686	-0.8104023
2	0xbed84b7b	-0.42245087
3	0xbf0bac0a	-0.54559386
4	0x3f1151fb	0.5676572
5	0x3f3a9617	0.7288527
6	0x3e1fec90	0.15617585
7	0x3eec4d4c	0.46152723
8	0xbf861d46	-1.0477684
9	0xbf7baf2f	-0.98314184
10	0xbe844bb1	-0.25838998
11	0x3f95a199	1.1689941
12	0x3f051cf9	0.51997334
13	0xbe61dbce	-0.22056505
14	0x3fe55200	1.791565
15	0xbf50f129	-0.8161798
16	0xbd64d986	-0.05587151
17	0xbf2b81b8	-0.6699481
18	0x3d8450af	0.06460702
19	0xbe9ca815	-0.30596986
20	0x3ee4d992	0.44697243
21	0x3bb41c52	0.00549654
22	0x3ed2a299	0.41139677
23	0xbf535a08	-0.8255925
24	0xbf7d5935	-0.98964244
25	0xc026ed17	-2.6082208
26	0x3f622a03	0.88345355
27	0xbb2ffee9	-0.002685482
28	0x3f30d573	0.690757
29	0xbfa8e783	-1.3195652
30	0xbfb03627	-1.3766526
31	0x3e94eedf	0.29088494
32	0x3f57150b	0.84016484
33	0xbf473ffb	-0.77832
34	0xbe0fe8ee	-0.140537
35	0xbf8f3b9a	-1.1190064
36	0x3fa75c89	1.3075114
37	0x3f901a9d	1.1258122
38	0x3edd33eb	0.43203673
39	0xbf06506b	-0.5246646
40	0x3f8ac156	1.0840251
41	0x3e3ec532	0.18629912
42	0xbf835a7d	-1.026199
43	0xbeb07857	-0.34466812
44	0xbfb597b7	-1.4186925
45	0xbeedcf90	-0.4644742
46	0xbfd2e0f9	-1.6474906
47	0x3fc6afdb	1.5522417
48	0x3fc268bb	1.5188211
49	0xbf4aa111	-0.7915202
50	0xbef07f8d	-0.46972314
51	0x3c45a394	0.012062926
52	0x3fa56652	1.2921851
53	0xbf1cebc9	-0.6129728
54	0xbd492ec3	-0.04911686
55	0x3ede0c28	0.4336865
56	0x3d68a83e	0.056801073
57	0xbf68efa0	-0.9099064
58	0xbf01f2a6	-0.5076088
59	0x3f58a2bd	0.8462332
60	0x3ddd7236	0.108128
61	0xbf60ff1f	-0.87889284
62	0xbf0e46b4	-0.55576634
63	0xbd9b26f1	-0.07575787
64	0x3df2e06f	0.118592136
65	0xbf86999f	-1.0515631
66	0xbf99fa86	-1.2029579
67	0xc01311a6	-2.2979522
68	0xbdfcc277	-0.12341779
69	0x3e417131	0.18890835
70	0xbf27f15a	-0.6560265
71	0x3f16c65e	0.58896434
72	0xbee80edc	-0.45323837
73	0xbf71224d	-0.94192964
74	0x3d37ede3	0.0449046
75	0x3f713c8f	0.9423303
76	0xbf12ef0e	-0.5739602
77	0x3f811d75	1.0087115
78	0xbf4ca645	-0.7994121
79	0xbf96182f	-1.172613
80	0xbfc6092b	-1.5471548
81	0xbfa563fe	-1.292114
82	0xbd1bfd90	-0.038083613
83	0x3f12f9bf	0.5741233
84	0xbf9d6945	-1.2297751
85	0xc015357a	-2.331389
86	0xbf92ed34	-1.1478639
87	0x3f18aa40	0.5963478
88	0x3eaac6a3	0.33354673
89	0xbd3a2550	-0.04544574
90	0x3d2b4804	0.041816726
91	0xbfa4a6fd	-1.2863461
92	0x3efe01a2	0.4961062
93	0x3f8d1f11	1.1025106
94	0xbef8b03c	-0.48571956
95	0xc03bbbc2	-2.9333348
96	0xbfb89c47	-1.4422692
97	0x3ed7dba1	0.4215975
98	0x3f212f9c	0.6296327
99	0xbed834ca	-0.42227775
100	0x3f1e5617	0.6185011
101	0x3fcca93b	1.5989145
102	0x3e10912d	0.1411788
103	0x3ffd1bce	1.977411
104	0x3f0d76f1	0.55259615
105	0x3f514bae	0.81756103
106	0x3f78bda5	0.97164375
107	0xbfe47641	-1.7848588
108	0xbfde54de	-1.736965
109	0x3ef2ceea	0.47423488
110	0xbf4db9ab	-0.8036143
111	0x3c10889d	0.008821634
112	0x3f3fd084	0.74927545
113	0xbf9c86d2	-1.2228644
114	0xbdd8243a	-0.10553785
115	0xbe4f714c	-0.20258063
116	0xbfde168a	-1.7350628
117	0x3f726bf1	0.94695956
118	0x3f2ecf76	0.6828531
119	0x3f83184a	1.0241787
120	0x3f6e9070	0.93189144
121	0xbf3b0c0b	-0.7306525
122	0xbe47c596	-0.19508967
123	0xbe464ca9	-0.19365181
124	0x3f8adf4b	1.0849394
125	0xbf00a6f1	-0.5025473
126	0xbf5a47fc	-0.8526609
127	0xbfb85cdf	-1.4403342
128	0x3fceaa00	1.614563
129	0xbf5f74a7	-0.8728737
130	0xbf9f21c3	-1.2432178
131	0x3e70d709	0.2351953
132	0xbe5bda87	-0.2147008
133	0xbfd130c2	-1.6343005
134	0xbea3216a	-0.3186143
135	0xbfcde7b7	-1.6086339
136	0x3f9c9938	1.2234259
137	0xbfc4dce5	-1.5379912
138	0xbf852df9	-1.0404655
139	0xbf9cc377	-1.2247151
140	0xbf493b78	-0.7860637
141	0xbf3e02c0	-0.74222946
142	0xbf3ef396	-0.7459043
143	0xbe151502	-0.14558795
144	0xbf92e8bd	-1.1477276
145	0xbf5160ca	-0.81788313
146	0xbfba868b	-1.4572309
147	0x3eab2313	0.33425197
148	0xbf3ba569	-0.7329927
149	0xbdcab35e	-0.09897493
150	0xbeff7011	-0.49890187
151	0x3f6d9c9a	0.9281708
152	0x3e52a3d3	0.20570306
153	0xbf2c5787	-0.67321056
154	0x3fc446eb	1.5334142
155	0xbf555fe7	-0.8334946
156	0x3f38331b	0.7195298
157	0xbf863553	-1.0485023
158	0xbfbe7230	-1.4878597
159	0x3e1b375e	0.1515784
160	0xbed98441	-0.42483714
161	0x3e20f3ac	0.15717953
162	0xbf5a3cb7	-0.85248893
163	0xbdf48f09	-0.11941344
164	0xbf3055c8	-0.6888089
165	0x401388f1	2.3052332
166	0xbef2b8d5	-0.4740664
167	0xbdd5e681	-0.10444356
168	0x3d9de192	0.0770904
169	0xbfa0d5db	-1.2565264
170	0xbf65b9b8	-0.8973651
171	0x4004b70f	2.073673
172	0xbf62c110	-0.8857584
173	0xbed41b41	-0.41427043
174	0xbec5236c	-0.38503587
175	0x3ca43565	0.020044992
176	0xbf2fba7f	-0.68643945
177	0x3f3704e3	0.7149183
178	0x4019038c	2.3908415
179	0x3f3c73c8	0.7361417
180	0x3f63c8eb	0.8897845
181	0x3f2d8f99	0.6779724
182	0xbf86a1d4	-1.0518136
183	0x3e785676	0.24251732
184	0xbe227d45	-0.15868099
185	0x3e0174d7	0.12642227
186	0x3d16b46d	0.03679316
187	0x3fb08264	1.3789792
188	0xbf3e0a07	-0.7423405
189	0xbf01f84a	-0.50769484
190	0xbf84a16d	-1.0361763
191	0xbfaecee8	-1.3656893
192	0x3ecac063	0.39599904
193	0x3fc0a301	1.5049745
194	0xbfd28d00	-1.644928
195	0xbf4f5597	-0.80989975
196	0x3f861532	1.0475218
197	0x3f48e06d	0.78467447
198	0xbd99f9e5	-0.07518367
199	0x3f4ff7a6	0.81237257
200	0x3fc1c0b8	1.5136938
201	0xbf0e7d67	-0.556601
202	0x3fada8f4	1.3567185
203	0xbc2cb692	-0.010541575
204	0x3f118ae2	0.56852543
205	0xbfc83d00	-1.5643616
206	0x4017570c	2.364688
207	0x3e46ce0b	0.19414537
208	0x3f32f6a9	0.69907624
209	0xbeeac38d	-0.45852318
210	0x3fb0f73b	1.3825449
211	0x3f26f235	0.6521333
212	0x3e2cc70a	0.16872802
213	0x3f88a753	1.0676063
214	0xbfbe703a	-1.4877999
215	0xbf5392f5	-0.82646114
216	0x3f9dfb90	1.2342396
217	0x3f0eb1d8	0.5574012
218	0xbf59718a	-0.8493887
219	0xbfecc5ec	-1.8497901
220	0x3fc72a3e	1.5559766
221	0x3f83780f	1.0271014
222	0xbf39ec16	-0.72625864
223	0xbf8dd0bf	-1.1079329
224	0xbf05c058	-0.5224662
225	0xc01c8f63	-2.4462516
226	0xbec0f0d1	-0.37683728
227	0xbf8067cd	-1.0031677
228	0xbf2e7474	-0.68146443
229	0xbf07a77d	-0.5298994
230	0x3f066696	0.52500284
231	0x3e41fcaf	0.18944047
232	0x3fd47313	1.6597618
233	0xbec8f8d7	-0.3925235
234	0xbff47d8f	-1.9100817
235	0x3cb62c97	0.022238059
236	0xbf5fc51d	-0.87410146
237	0xbf11e8c2	-0.56995785
238	0xbf990c50	-1.1956882
239	0xbf940c80	-1.1566315
240	0xbe8d1913	-0.27558193
241	0x3f5b2378	0.85600996
242	0xbeade07d	-0.33960333
243	0xbf770cd5	-0.96503955
244	0x3fb22bd8	1.391963
245	0x3f81659b	1.0109133
246	0xbf5c6890	-0.8609705
247	0x3e454106	0.19263086
248	0x3fd77662	1.6833003
249	0xbfb77872	-1.4333632
250	0x3dac4c19	0.08412952
251	0xbdea0bae	-0.11428009
252	0x3f9f099d	1.2424809
253	0xbfd8b68d	-1.693071
254	0x3df0e0e9	0.11761648
255	0xbfa82800	-1.3137207

fc2.bias f4 [32]
0	0x3d2d633f	0.042330977
1	0xbddc9b4e	-0.107718095
2	0x3c431dff	0.011909007
3	0xbd4aa80a	-0.04947666
4	0x3d9fadfc	0.07796857
5	0x3c02c837	0.007982305
6	0xbc0295a8	-0.007970251
7	0xbde5c20e	-0.112186536
8	0xbd4eea18	-0.050516218
9	0x3bcf2e47	0.0063226554
10	0x3c142c50	0.009043768
11	0xbd549311	-0.051898066
12	0xbdfdb85a	-0.12388678
13	0x3d9b8565	0.07593802
14	0x3dcb42e9	0.099248715
15	0xbd68a156	-0.056794487
16	0xbdb16327	-0.0866149
17	0x3d6d10a5	0.0578772
18	0xbd6d57d8	-0.057945102
19	0xbe1529d4	-0.14566737
20	0x3da063d6	0.07831542
21	0x3d11ec17	0.035625543
22	0xbdf9e9de	-0.1220281
23	0x3d747219	0.059679125
24	0xbda17d1c	-0.07885191
25	0xbd873071	-0.06601036
26	0x39274ae7	0.00015954264
27	0xbe05f949	-0.13083376
28	0xbd8a4a9f	-0.06752514
29	0xbd06d04f	-0.032913502
30	0xbdaecca8	-0.08535129
31	0xbc963169	-0.018334107

fc3.weight f4 [10, 32]
0	0xbec56994	-0.38557112
1	0xbf0b526f	-0.5442266
2	0x3f44b3bd	0.7683676
3	0x3ea753cb	0.32681116
4	0xbe4ea8de	-0.20181605
5	0x3f83eea2	1.03072
6	0xbf3c0a3a	-0.73453104
7	0xbf8f746d	-1.1207405
8	0x3fd3b92f	1.6540889
9	0x3f07df90	0.53075504
10	0x3e2059b2	0.15659216
11	0xbdf5e706	-0.12006955
12	0xbd4013da	-0.046893932
13	0xbd9d5000	-0.076812744
14	0xbecd25fe	-0.40068048
15	0xc0036338	-2.0529308
16	0xbf7748ff	-0.9659576
17	0x3eb2dacb	0.3493255
18	0x3db34850	0.08754027
19	0x3f491810	0.7855234
20	0x3e35b439	0.1774453
21	0x3f6f8f6f	0.9357824
22	0xbf82c05f	-1.0214957
23	0x3fa52130	1.2900753
24	0xc00acbc9	-2.168688
25	0xbe97790c	-0.2958454
26	0xbec7ceb1	-0.3902488
27	0x3fa50d1f	1.2894629
28	0x3cbf395d	0.023342783
29	0x40116adc	2.2721472
30	0x3e4ee6df	0.20205258
31	0x3f97589d	1.1823918
32	0x3eda1ec6	0.42601603
33	0xbf3c4d22	-0.73555195
34	0x3f7446c5	0.95420486
35	0x3cfa69fc	0.030568115
36	0xbf4bf2c9	-0.79667336
37	0xbe913f69	-0.2836869
38	0xbe3ce569	-0.18446888
39	0xbea53a19	-0.32270887
40	0x3ed81083	0.42200097
41	0xbf89b651	-1.0758764
42	0xbf1db4c6	-0.61603963
43	0xbe206eb2	-0.15667227
44	0xbbcddcd8	-0.00628243
45	0xbd8fab27	-0.070150666
46	0xc010a53b	-2.2600849
47	0xbe926223	-0.28590497
48	0x3f3bc99c	0.73354506
49	0xbfb74566	-1.4318054
50	0x3f046bfa	0.5172726
51	0x3f40f27a	0.7536999
52	0xbfba235b	-1.454204
53	0xbff1ad0c	-1.8880935
54	0x3cb024b8	0.021501884
55	0x3f8a03a4	1.0782361
56	0x3e0f84d0	0.14015508
57	0xbee228c6	-0.44171733
58	0xbf3ca0b4	-0.73682714
59	0x3decc504	0.11561015
60	0xbde786cb	-0.113050066
61	0xbfd090e6	-1.629422
62	0x3fa85226	1.315007
63	0x3f7fdc5c	0.99945617
64	0x3d53119b	0.05153046
65	0x3f369f3f	0.7133674
66	0xbdcb77e9	-0.099349804
67	0x3ed6a8a8	0.4192555
68	0xbe536243	-0.20642953
69	0x3ec47e03	0.3837739
70	0x3e838ffa	0.25695783
71	0xbed520dd	-0.41626635
72	0xbd538f30	-0.051650226
73	0x3f136d4e	0.5758866
74	0x3dd1de45	0.10247473
75	0xbe0e2f3c	-0.13885206
76	0xbda6e7ba	-0.08149667
77	0xbd068859	-0.032844875
78	0x3faccca8	1.3499956
79	0xbea7cb50	-0.32772303
80	0x3e4fb8af	0.20285295
81	0x3efe8465	0.49710384
82	0x3ee05d86	0.43821353
83	0x3e862bf0	0.26205397
84	0x3e036086	0.1282979
85	0xbeaa526d	-0.3326601
86	0x3e2698c4	0.16269213
87	0xbfc4ee81	-1.5385286
88	0x3f89b562	1.0758479
89	0xbf32ae0c	-0.69796824
90	0xbf0548e4	-0.5206435
91	0x3f0b8c27	0.5451073
92	0x3ccf4fd9	0.025306629
93	0x3fcaeab3	1.5852875
94	0xbeffd1e1	-0.49964812
95	0xbf2cc7d7	-0.6749243
96	0xbc831159	-0.015999483
97	0x3faf7c48	1.3709803
98	0x3f45f3eb	0.77325314
99	0x3eeb95c3	0.46012697
100	0xbe966e03	-0.29380807
101	0xbefeb605	-0.49748245
102	0xbdc87566	-0.09788017
103	0x3d903401	0.07041169
104	0x3fc65227	1.5493821
105	0xbeff3a29	-0.4984906
106	0xbf3fcbc8	-0.7492032
107	0xbdf7aacd	-0.120931245
108	0xbb66f3cf	-0.0035240536
109	0xbe68fd5a	-0.22752896
110	0x3ef86915	0.4851767
111	0x3dda8ab3	0.10670986
112	0x3f2f45dc	0.6846597
113	0x3f3ea973	0.7447731
114	0x3ef6be2a	0.4819196
115	0xbe1e3667	-0.1545044
116	0xc00b5ea8	-2.1776524
117	0x3f61190a	0.8792883
118	0x3efc1d85	0.49241272
119	0xc00e5c93	-2.2244003
120	0xbf61f8c1	-0.88270193
121	0xbfc58127	-1.5430039
122	0xc02aa8c8	-2.6665516
123	0xbf5ce843	-0.86291903
124	0xbe15eb30	-0.14640498
125	0x3bd0eb5e	0.006375714
126	0x3f68acd8	0.9088874
127	0x3f4e3f1c	0.8056505
128	0xbfb290de	-1.395046
129	0xbf0cc1fd	-0.549835
130	0xbea1690d	-0.3152546
131	0xbdb89784	-0.09013274
132	0xbe5e84b0	-0.21730304
133	0x3f3307c2	0.6993371
134	0xbf0beeaa	-0.5466105
135	0x3f6eeff8	0.93334913
136	0x3f8cec1a	1.1009552
137	0x3f166484	0.58747125
138	0x3dc4fb81	0.09618283
139	0xbe29631c	-0.16541713
140	0xbd11a43c	-0.035557017
141	0x3c63c8a2	0.013902815
142	0xbf92d8d4	-1.1472421
143	0x3fa1441b	1.2598909
144	0x3f692c39	0.91083103
145	0x3f2e6bfa	0.6813351
146	0x3ec1b1f9	0.37831095
147	0xbfc42f49	-1.532693
148	0xbf6294ec	-0.88508487
149	0xbe6f0cb8	-0.23344696
150	0xbf6d760d	-0.92758256
151	0x3fb4a8ec	1.4114051
152	0x3fa90da2	1.3207285
153	0xbdad10b6	-0.08450453
154	0xbee49bb2	-0.44650036
155	0x3f29347d	0.66095716
156	0xbcc5807e	-0.024109121
157	0x3fe8524e	1.8150117
158	0xbfdf166b	-1.7428716
159	0x3f827a69	1.0193607
160	0x3eb33cfd	0.35007468
161	0x3f9aaae2	1.2083399
162	0x3f2dc18f	0.6787347
163	0x3ebb8a82	0.3662911
164	0xbf4944bf	-0.78620523
165	0x3f88b024	1.0678754
166	0x3e9f2209	0.31080654
167	0xbfbcef0a	-1.4760449
168	0x3fe711b4	1.8052278
169	0x3f199a17	0.6000075
170	0x3e49970e	0.19686529
171	0xbf9c9e0c	-1.2235732
172	0xbd20932e	-0.03920286
173	0xbed91b13	-0.42403468
174	0xbee84d2d	-0.4537138
175	0x3f340057	0.7031302
176	0x3f8c68c8	1.0969477
177	0x3f2e4057	0.68066925
178	0x3f3fdd35	0.7494691
179	0x3f34ce23	0.7062704
180	0x3e3b5f60	0.18298101
181	0xc0359d1a	-2.8377137
182	0x3f2eaea0	0.68235207
183	0xbfadaff0	-1.3569317
184	0xbe6a4b7d	-0.22880359
185	0xbf395e6a	-0.7240969
186	0x3f772b69	0.96550614
187	0xc044c112	-3.074284
188	0x3d80692b	0.06270059
189	0x4004f72b	2.077586
190	0x3f937fef	1.1523417
191	0x3ddc244b	0.1074911
192	0xbf1d89d9	-0.61538464
193	0x3fd5b2df	1.6695212
194	0xbf5da88d	-0.86585313
195	0x3eb3cdbd	0.35117903
196	0xbe8cdb3a	-0.27511007
197	0x3b3dd595	0.0028966416
198	0xbf746590	-0.9546747
199	0x3ee9a435	0.45633093
200	0x3fd55ec9	1.6669551
201	0x3f171ce3	0.5902845
202	0x3e05efdc	0.1307978
203	0xbdd1e473	-0.10248651
204	0xbd3a85fe	-0.04553794
205	0xbe857ef2	-0.26073414
206	0xbeb9aaf3	-0.36263236
207	0x3f5e4c0f	0.86834806
208	0xbf6d25fc	-0.92636085
209	0x3f30304b	0.6882369
210	0x3ea59c67	0.32345888
211	0xbe7017e2	-0.2344661
212	0x3e28bc6a	0.16478124
213	0x3f258c47	0.6466717
214	0x3ebe98eb	0.37226042
215	0xbf2d3c52	-0.67670166
216	0xbfb83739	-1.4391853
217	0xbec608a3	-0.38678464
218	0x3e5e8465	0.21730192
219	0x3f47f59a	0.78109133
220	0x3caf2e96	0.021384519
221	0xbfea0d2b	-1.8285269
222	0x3f7e803e	0.9941443
223	0x3f0013b6	0.50030077
224	0xbf474e28	-0.7785363
225	0x3f4ca450	0.7993822
226	0x3f739202	0.95144665
227	0x3d11e118	0.035615057
228	0xbe667501	-0.22505571
229	0xbdbe76b5	-0.09299985
230	0xbe6d24cf	-0.23158573
231	0xbfa54904	-1.2912908
232	0x3f82473a	1.0177987
233	0x3ec3646c	0.38162553
234	0x3e2070dd	0.15668054
235	0xbf981f9b	-1.1884645
236	0xbdfde889	-0.12397868
237	0xbed04479	-0.4067724
238	0x3eb0daba	0.34541875
239	0x3ea8af46	0.32946223
240	0x3f451996	0.76992166
241	0x3f2d2b2d	0.67644006
242	0x3f4e3775	0.8055337
243	0x3f820368	1.015729
244	0xbdc4c31c	-0.09607527
245	0x3f2b6689	0.6695333
246	0x3f072894	0.5279629
247	0x3f027493	0.5095913
248	0xc053c0f6	-3.3086524
249	0xbf058d7b	-0.5216901
250	0x3f6d2b2c	0.92644
251	0xbf8d3493	-1.1031669
252	0xbd949971	-0.07255829
253	0xbf80e093	-1.0068535
254	0xbfb9f3a8	-1.4527483
255	0x3e773da7	0.24144612

fc3.bias f4 [10]
0	0xbef0e042	-0.47046095
1	0xbf4b946d	-0.79523355
2	0x3f018fdc	0.50610137
3	0x3da590fe	0.08084296
4	0x3f15f2cc	0.58573604
5	0xbed821fc	-0.42213428
6	0x3e98dd9a	0.2985657
7	0xbe805796	-0.25066823
8	0xbe3f22fb	-0.18665688
9	0x3f230d2e	0.63691986
