Pytorch1/xavierModel.pt (torch, 212907 bytes, 6 tensors)

fc1.weight f4 [64, 784]
00000000: 6c29 10bd 6ab6 52bc 38a2 c5bc 253e 62bd
00000010: 9704 38bd 2c17 27bd 6db1 a53a e578 1d3d
00000020: b0e4 4b3a 65cf 7f3d 285b 213e 22f9 4e3e
00000030: 07bb 41bc bbfa 57bd 6577 65bd e7e8 18bd
00000040: 8c3b a33d b1c1 4c3e 75db 66bd 2f3e ebbd
00000050: 533f 8abd 2ea4 283d 9dac 053d 8ed2 abbc
00000060: b015 0dbd c82e 9cbb a449 61bd 179d 41be
00000070: c627 14bd fd4a 06bd 7281 96bd 4159 20bd
00000080: beb8 dbbd a34a 613d 11ac 0ebd 809b 15bd
00000090: 0101 bcbc 2850 363e a3c7 ba3d 7885 893c
000000a0: 9038 05bd ba5c 563d 7754 a83d 02e3 81ba
000000b0: 0517 b7bc 805e 9d3d 352f d93d 4d5b a53d
000000c0: 7cbd 8fbd e216 cfbc 05dc 333c 1cb9 593c
000000d0: d214 87bd 418c c0bc 6603 cfbd c72f 28bd
000000e0: 6211 19bd 3ee7 6dbd 6a97 8e3b bc93 bc3c
000000f0: 2679 b03a 54c7 363d 09a1 ca3b 0a4f be3c
00000100: 15ab ac3d 33da b8bc 660c 7cbd 4821 24bd
00000110: 5aba ba3c f8f3 8cbd a3ff 6dbd 7a8d 67bd
00000120: 0ead 7c3d 8e27 223c 3aea c73c bcf2 91bd
00000130: ecc2 913d 18e5 17bd 47f9 deba 4592 b4bc
00000140: e335 edbc ab4c 1cbd 610c c1bd 2ade 0bbc
00000150: 2000 533d 8096 14bd 818a 4cbd 82c2 bebc
00000160: 18c0 84bd eb13 bcbc 731e dbbc e121 2c3c
00000170: 2aca 0bbd bd8e 2abd df96 fdbc 9ca2 813c
00000180: a9e1 d83c 74c4 6bbc b4ac 003d 6451 02bd
00000190: e4b3 b9bd 14fc 19bd 4307 013c c262 9ebd
000001a0: 145a fb3b a6bd 84bc 93d5 28bd 1f73 22be
000001b0: e905 bebd 35e1 00bd 8e88 403d 3d97 5bbd
000001c0: 0088 05bc 0bd5 1fbd 7fec dfbc 6c78 8fbc
000001d0: 8248 763d cc69 70bd 35f8 cd3c e12f f93b
000001e0: ac02 bc3d 7862 2dbc c251 9a3d 0e49 ad3b
000001f0: e5d3 c5bb 1753 06bd 3992 9cbd 70c9 1fbd
00000200: f3ab 293c 235e 7e3d b076 873c befd 943c
00000210: 8efe 33bd e29f 4dbd 1942 773c 3f4e 81bc
00000220: 3235 af3c b259 4d3c 061f 8c3a 4475 acbd
00000230: 98ed e8bc f9b3 51bd a24b 073c 3c6d ebbc
00000240: 0d23 073c eb0d 0a3d 6351 d53c 1d73 c43d
00000250: 7d65 853d 83df f43d 222a 2d3d 40a3 223d
00000260: 131a cf3b 75b5 60bd dba2 26bc 3465 98bd
00000270: 560c 0dbd b822 1cbd b852 24ba 0751 97bd
00000280: 8ea4 9cbd 36fe 483c 8a9b 8f3a 001c 89ba
00000290: 581e 02bd 9568 40bd 6a5b 5abd b5a0 c4bd
000002a0: c6f4 20bd e388 973c 621f 52bd 0b4a 93bd
000002b0: bd29 023c bd2a d3bb e067 0c3d 1edd 893c
000002c0: 7e16 12bd 7100 223d 57ac dabc 4de7 883b
000002d0: 3959 e3bc c3bd 7fbc 7421 9b3b 0d11 bc3c
000002e0: fca5 083d 0079 58bd e2f5 adba 5aa2 9a3d
000002f0: 76bd bebc 2b10 a7bd 8531 2fbd e7b0 9f3d
00000300: 7db7 8f3c 9b88 bbbd b4b9 3e3c 4bcd d2bc
00000310: ec57 78bd ed6c ecbc e82c 00be b7e0 053d
00000320: 5b3c 3bba 530e 29bd 6928 dd3d a3de f63c
00000330: a4ed 02bd b00a ea3c f3b7 d53d 550f 553d
00000340: 815c d13d 30e8 c5b9 83fa 2cbd 3d4f 9d3d
00000350: 5719 793d fa1c 043d bb1b 093d 1a08 60bc
00000360: 991d 10bd 6eb2 843c cd57 b5bb b841 01bd
00000370: 4d06 b0bd 34c7 ecbd 4396 aabd 980d bf3c
00000380: 4c55 69bd 1029 923c 5529 8b3c 94eb 883d
00000390: e4e0 36bb c411 8dbc 80b8 8b3d 6735 66bd
000003a0: 3db9 77bd da3d 21bd 57e2 efbd 8a1b 6f3d
000003b0: 90c6 df3c 89a1 07bd 02b0 a0bd 8f95 123d
000003c0: f5ce c93d a307 9f3b 4813 8ebc e5fb a63c
000003d0: 98ba 243c 9ddd d8bc b4c1 123d e978 233d
000003e0: 73be 81bd b53b d6bc 7587 bfbd 422a 9dbd
000003f0: 2917 a9bd e782 c7bd 5fc9 a73b d8e5 b0bc
-0.035195753 -0.012860874 -0.024125203 -0.055235047 -0.044926252 -0.040793583 0.0012641378 0.038445372
0.00077779125 0.062453646 0.1575743 0.20212224 -0.011824376 -0.05272935 -0.056022067 -0.037331488
0.07970342 0.19995762 -0.056361634 -0.1148647 -0.067503594 0.0411722 0.03263532 -0.020974424
-0.03444451 -0.004766319 -0.05500187 -0.18907581 -0.036170743 -0.03278636 -0.073489085 -0.03914762
-0.10728596 0.05500282 -0.034832064 -0.03652525 -0.022949697 0.17804015 0.09120109 0.016787276
-0.032524645 0.052334525 0.082192354 -0.0009909573 -0.022349844 0.0768404 0.10604707 0.08074055
-0.07018563 -0.025279466 0.01097775 0.013288762 -0.06595768 -0.023504378 -0.1010807 -0.04106119
-0.037370093 -0.058081858 0.004351546 0.023019664 0.001346384 0.044623688 0.0061837477 0.023231048
0.08431069 -0.022564983 -0.06153526 -0.040070802 0.022793937 -0.06882471 -0.058105122 -0.056531407
0.061688475 0.009897126 0.02440368 -0.07126376 0.071172565 -0.037083715 -0.0017011546 -0.022042403
-0.02895636 -0.038159054 -0.09426189 -0.008536855 0.05151379 -0.03627634 -0.049936775 -0.023286108
-0.064819515 -0.022958716 -0.026747918 0.010506124 -0.034128346 -0.041640032 -0.03095573 0.015824609
0.02647479 -0.0143901 0.031414703 -0.0318159 -0.090675145 -0.037593916 0.0078752665 -0.0773368
0.0076706503 -0.016203713 -0.041219305 -0.15864228 -0.09278471 -0.031464774 0.04700523 -0.05361103
-0.008150101 -0.039021533 -0.02733445 -0.017513476 0.060127743 -0.058694646 0.025142768 0.0076045846
0.09180197 -0.010582559 0.07535125 0.00528825 -0.0060372227 -0.032794084 -0.07645077 -0.039010465
0.010355937 0.062101495 0.016536087 0.0181874 -0.043943934 -0.050201304 0.0150914425 -0.015784381
0.02138767 0.012533592 0.0010690398 -0.08420804 -0.028433606 -0.051197026 0.008257778 -0.02873861
0.008248103 0.03370468 0.026039785 0.095922686 0.06513498 0.11956694 0.04227651 0.03970647
0.006320247 -0.05486055 -0.010170664 -0.07441178 -0.034435593 -0.038119048 -0.00062684296 -0.073885016
-0.07648574 0.01226764 0.0010956388 -0.0010460615 -0.03176722 -0.046974737 -0.053309835 -0.09600965
-0.039295934 0.01849789 -0.05129946 -0.07191857 0.0079445215 -0.006444304 0.03427875 0.01682907
-0.03566598 0.039551202 -0.026693506 0.004177964 -0.027752506 -0.015609208 0.0047342125 0.02295735
0.03336142 -0.05284977 -0.0013272131 0.07550497 -0.023283701 -0.08157381 -0.042771835 0.07797413
0.017543549 -0.09156915 0.011640955 -0.025732657 -0.060630724 -0.028860534 -0.1251713 0.032685008
-0.00071424776 -0.041273426 0.10798723 0.030135458 -0.031964913 0.02856955 0.10435476 0.052016575
0.10222722 -0.0003774776 -0.042231094 0.07681129 0.06081518 0.032254197 0.03347371 -0.013673807
-0.035184477 0.016198363 -0.0055341483 -0.031556815 -0.08594952 -0.115614325 -0.083294414 0.023321912
-0.05696611 0.017841846 0.016987482 0.06685558 -0.0027905041 -0.017220385 0.068223 -0.056203272
-0.06047939 -0.039365627 -0.11713093 0.058375873 0.027316362 -0.033113036 -0.07846071 0.03578716
0.09853927 0.0048532053 -0.017343178 0.020383785 0.010054253 -0.026472861 0.03582926 0.03991023
-0.063351534 -0.026151517 -0.09352008 -0.07674076 -0.082563706 -0.097417645 0.005120441 -0.021593973

fc1.bias f4 [64]
00000000: bf02 1c3d 6ffa 7b3c 5866 103c 138d fb3c
00000010: b09a 54bc 028b 16bd 6661 6a3d 7497 163d
00000020: 4205 f7b8 ce93 10bd 4f66 58bc d0af df39
00000030: 7036 883d 9d7e d23c f60c 1ebd b5d2 6c3d
00000040: bf1f b2bd 75cb 0bbd de70 3bbd fcae 6f3c
00000050: 42f0 2e3d d43b b13c 4c6f 313d d094 af3c
00000060: 46b0 713c d6bc 233d f969 253d a6be 8f3c
00000070: 2cb0 543d 3ade 6c3b 3417 35bd 3287 aebc
00000080: d7ab db3c ac0d f43c aa79 b03c dca5 963d
00000090: cd45 a3bc a871 243d 7285 423d 3dfe 93bc
000000a0: 4154 03bd f504 8a3b eeb1 7a3b 11c7 45bd
000000b0: 9277 aa3c bfeb 2f3d e469 303d 842f fb3b
000000c0: 9aba 3bbd ed19 043d f92a 4abc 81a4 5abc
000000d0: 51ae ebbc ac37 aaba 2e66 9d3a 7e4d 423d
000000e0: de69 313c 6a25 523b 9c0b 083c cd61 e63c
000000f0: 84c3 5b3c 1e1e f83b d699 333a 1517 0cbc
0.038088556 0.015379532 0.008813463 0.030706918 -0.0129763335 -0.036753662 0.057221793 0.03676553
-0.00011778857 -0.035297208 -0.013207986 0.00042664865 0.06651008 0.02569514 -0.03858658 0.057818133
-0.08697461 -0.03412958 -0.045761935 0.014629122 0.042709596 0.021634974 0.04331903 0.021433264
0.0147514995 0.03997501 0.040384267 0.017546963 0.051925823 0.00361432 -0.04421158 -0.0213047
0.026815338 0.029791676 0.021542389 0.07355854 -0.019930745 0.040147454 0.047490545 -0.018065566
-0.032062773 0.0042120167 0.0038253027 -0.048285548 0.020808969 0.042949434 0.043069735 0.0076655764
-0.045832254 0.032251287 -0.012339347 -0.013344885 -0.028769644 -0.0012986562 0.0012008601 0.047437184
0.010828463 0.0032065758 0.008303549 0.028122807 0.013413314 0.0075719496 0.00068512314 -0.008550425

fc2.weight f4 [32, 64]
00000000: d7e8 b6bc 4858 b63e a48f 51bd 5088 813e
00000010: f1e7 723e b88b 2c3c 600d 5a3d e6bf 113e
00000020: 03de 37bd 0040 cbbd 27b0 a3be b96c 483d
00000030: 22af 0abd 48ef 0d3e b206 3bbe af46 1d3e
00000040: 75df 02bd 58ea 0ebe 4890 e0bc 2151 8f3e
00000050: a2e4 64bd d06a 743e eef2 ab3d c1f7 af3c
00000060: f4dd 543d ea8b f4bd 083b 553d bbf6 753c
00000070: 961f b2bd d95a 9c3d b3f7 f63d 40a0 85bd
00000080: 15e8 623e a637 4abd fb0d 593c d4dd 9c3e
00000090: 0064 16bd e8f6 74be 8d0c 903e fd0d 3bbe
000000a0: 6819 593d e4f5 16be a7e9 d13d 1a12 e43c
000000b0: 4de7 0fbd 66d7 09be b8cb 393d 1349 86be
000000c0: bbca 4dbd ef7e 603c 779a ce3c 535c 27be
000000d0: d812 5cbe 2e26 1e3e ca22 febd a719 753b
000000e0: 31f8 f03c 32bc a73d 8bc0 83be 5336 acbd
000000f0: b3c0 40bd 99ab a63e b78f 99bd a322 55bd
00000100: 8b51 07ba 2baa 063e 1bdd 58be 7803 1e3e
00000110: b9c8 0e3e 3a14 25bd b515 063e 8996 12be
00000120: 0426 c8bc 5526 7fbe ecae 91bc 443e c73c
00000130: 7ae0 cbbd d554 5abe 4de5 013e 3f72 d73e
00000140: 559e acbe 9be7 013e 18db 21be df03 82be
00000150: 6b53 dcbd 177f 44be 0fbd ca3d e766 bebd
00000160: 8a72 9bbd c1f2 a2be d74a 89bd 316a 543e
00000170: 3aee 913d e6b1 f6ba 0f8c adbd 40a4 ea3d
00000180: cab0 c9bc 0399 e23d 545d 68be f83c 65be
00000190: 48ae 7a3d 7b96 1dbe 24d7 4ebe ef99 b4bc
000001a0: ece7 09be 521f 4d3e 449e a83d 6bf0 cc3e
000001b0: 854f 773d e745 3d3d 1c7b ed3d 909e 893e
000001c0: ff37 60be e3f1 46bd b543 6f3e bce1 b7be
000001d0: f37b 7b3d 2d3d 023e 2de3 67be 7fed 8c3e
000001e0: 05cd c73b 8a60 953c 0f1f 133e 6e72 a93d
000001f0: dfa0 083e a8f9 c7bd 94c4 8cbe 649a 1a3e
00000200: 53bd 9bbc 24ef 8abe 25ca fb3d 4096 8ebd
00000210: 0f59 743d 73b9 1ebe 9912 dfbd eea8 bfbb
00000220: 1137 5c3d bdc4 f13d 7685 9cbd 048d a53d
00000230: f248 613d a7db ba3e 8714 e73c 972a 85bd
00000240: b270 7f3e 6ea6 5dbe 20e0 99be 0587 97bb
00000250: 1983 6cbd 5f63 1ebd 728e 9d3e 159a b23e
00000260: 43e7 3abe 6784 993d f576 21be 3067 18be
00000270: 9755 7c3b e71c 89be fcba 2fbe 4df3 5d3e
00000280: 3d19 be3e ba46 09be 9f6b 833d 0ed7 cfbd
00000290: ea86 803e 079e 473b d830 ce3d b380 153e
000002a0: 15fd 0abe 7fbd ae3d c38f cdbd 557b 32be
000002b0: c7c4 103d a8f0 6a3e 614b 1cbe 8e24 dfbd
000002c0: 62ad 363d 067c c6be eb11 783e 6477 54bc
000002d0: 97ca e7bd 1414 e63d 0419 343e 3a62 62be
000002e0: 51c2 57bd 328a 1e3c 53e8 8c3e 8995 4b3e
000002f0: adaf 68be 54a3 8e3e c20f 0e3c 4089 9a3d
00000300: fa38 3b3e 22a7 67bd 0b38 033c 7ce0 663e
00000310: a0eb 32be 83d6 bf3e 0e24 cfbd dac5 77bd
00000320: 4f22 6f3b 8c7d 5cbd 0618 88be dcfd 84bd
00000330: b1aa 8d3c ab1a 38be 7f97 fa3c 6047 983d
00000340: ed46 8cbc 4171 9fbe 99cd 39be 08fa 80be
00000350: 06e3 3a3e 2a2a 56be dddc d0bd e0c7 4f3c
00000360: 53f3 1b3e 7a63 be3d 4832 2cbd 86d7 863d
00000370: 3a17 6ebe 18a0 123e 4d6d 213e f6b5 ebbc
00000380: cbda cc3d b655 fb3d 69b7 723e bdcf 233c
00000390: 46f5 a6be 60a8 863e 2507 61bd 526e 2cbe
000003a0: 588f 0ebe aeef b1bd ec98 9ebe 2a4c 4e3d
000003b0: 8fc2 933c 054c e83d 228d 0bbe ce3f 353d
000003c0: 1b3f 40be 8bc1 e4bc 3fcb ff3d 7dc6 14be
000003d0: 35ff 4bbe 8785 0abe 4233 4c3e 74f2 833e
000003e0: 7827 103d 9bac 79be 714f 193d ef41 95be
000003f0: 147f 5dbc 98d8 1bbd 69ca 85bd e7a4 12bd
-0.022327824 0.35614228 -0.051162377 0.2529931 0.23721291 0.010531358 0.05323541 0.1423336
-0.04488946 -0.099243164 -0.3197033 0.04893181 -0.033858426 0.1386081 -0.18264273 0.15358995
-0.031951386 -0.13956583 -0.027412549 0.27991584 -0.055882104 0.2386887 0.083959445 0.021480443
0.051969483 -0.11940749 0.05205825 0.015012438 -0.08697431 0.07634515 0.120589636 -0.06524706
0.22158845 -0.049369477 0.013247962 0.3063799 -0.03671646 -0.23922312 0.28134575 -0.18267055
0.053002745 -0.14742237 0.10249644 0.027840663 -0.035132695 -0.13461074 0.045360297 -0.26227626
-0.050242167 0.013702138 0.025220139 -0.16343813 -0.21491563 0.15444252 -0.12408979 0.0037399323
0.029415222 0.08190192 -0.25732836 -0.08408799 -0.047058772 0.32552794 -0.074981146 -0.052034985
-0.0005161992 0.13150851 -0.21178095 0.1543101 0.13943757 -0.040302493 0.13094218 -0.14315237
-0.02443219 -0.24916966 -0.017783605 0.024321683 -0.09954925 -0.21321423 0.12685128 0.4207935
-0.33714548 0.12686007 -0.15806234 -0.25393578 -0.10758098 -0.19189106 0.09899341 -0.09296971
-0.07590206 -0.31825832 -0.06703728 0.20743634 0.07125516 -0.0018821328 -0.0847398 0.114571095
-0.024620432 0.11064341 -0.22691852 -0.22386539 0.061201364 -0.15389435 -0.20199257 -0.022046058
-0.13467377 0.20031479 0.08233312 0.40027174 0.06037857 0.046209242 0.11595747 0.26878786
-0.21896361 -0.048570525 0.23365672 -0.3591441 0.061397504 0.12718649 -0.22645254 0.27524945
0.0060974383 0.01823451 0.14367317 0.08273779 0.13342617 -0.09764415 -0.27493727 0.15097958
-0.019011175 -0.27135575 0.122944154 -0.06962252 0.059655245 -0.15500431 -0.10892219 -0.0058489954
0.053763453 0.11805103 -0.07642643 0.08083537 0.055001207 0.36495706 0.02820803 -0.06502264
0.24945334 -0.21645519 -0.30053806 -0.00462425 -0.057742212 -0.038668986 0.3077274 0.3488318
-0.18252282 0.07495957 -0.15768035 -0.14883113 0.0038503164 -0.26779863 -0.17161173 0.21674843
0.3712863 -0.13405886 0.064170115 -0.1014844 0.2510293 0.0030459182 0.1006791 0.14599876
-0.13573106 0.08532237 -0.10037186 -0.1742986 0.03534391 0.22943366 -0.1526313 -0.10895644
0.044598944 -0.38766497 0.24225585 -0.012967918 -0.11317938 0.11234298 0.17587668 -0.22107783
-0.05267555 0.009676503 0.27521 0.19881262 -0.22723265 0.27858984 0.008670749 0.075457096
0.18283454 -0.056555875 0.008008967 0.22546571 -0.17472696 0.37468347 -0.10114299 -0.06049142
0.0036488955 -0.05383067 -0.26580828 -0.06493732 0.017293306 -0.17978923 0.030589817 0.07435489
-0.017123664 -0.31141093 -0.18144836 -0.2519076 0.18250665 -0.20914522 -0.10198376 0.012681931
0.1522954 0.092963174 -0.04204014 0.065840766 -0.23251048 0.14318883 0.15764351 -0.02877329
0.10002669 0.122722074 0.23702778 0.009998259 -0.32609004 0.26300335 -0.054938454 -0.16838959
-0.13921869 -0.086882934 -0.30976045 0.050365604 0.018037109 0.113426246 -0.13628057 0.044250302
-0.18774073 -0.02792432 0.12489938 -0.14528842 -0.19921573 -0.13527499 0.19941428 0.25770915
0.03519389 -0.2438225 0.037429277 -0.29151866 -0.013519067 -0.038048357 -0.06532747 -0.035801794

fc2.bias f4 [32]
00000000: 6c96 a1bd 1018 51bd a0f6 823d 8a70 bfbb
00000010: 1d28 9c3d 5635 6c3d 5d86 11bd bb85 7d3d
00000020: ca31 773d 43e0 95bd 0d67 cc3d edea 853d
00000030: fc54 92bd 1496 8b3d 462e 5c3d b9c2 2d3d
00000040: 956e 95bc 9ef1 183d 975e db3c b4ca 00bd
00000050: 7269 e2bd 233b 903d e1b7 01be c4c5 2dbc
00000060: 89a3 aebc 87b2 27bb 8982 d33d 7460 6a3d
00000070: 5067 8d3c 6f6b e63d 0cf2 adba 98ad f7bb
-0.07890019 -0.05104834 0.06394696 -0.005842273 0.076248385 0.057668053 -0.03552853 0.061895113
0.060350217 -0.07318165 0.09980593 0.06538949 -0.07145116 0.068157345 0.053755067 0.04242203
-0.018241206 0.0373398 0.026778502 -0.031443313 -0.11055268 0.070425294 -0.126678 -0.010606233
-0.021318214 -0.0025588588 0.10327632 0.05722089 0.017261177 0.1125096 -0.0013270988 -0.007558536

fc3.weight f4 [10, 32]
00000000: 8182 c03e b092 01bf 37bb 3d3e 1ffb 11be
00000010: ddbf 8c3d cbf1 563e 5f4b d93d 822b 33be
00000020: ce28 913e fa5d fc3e b39f 3f3e 2acd 49bc
00000030: 6eea 3abe 1fc8 82be 0202 acbd d98b 823e
00000040: df42 263c 2337 93bc 5fce 36be 4acd a8be
00000050: db82 f73d 1072 89bd 981e 49bd dd15 c2bd
00000060: a6e5 86bd 7bcf 71be 3f68 e2be 5df7 15bd
00000070: 2ad0 cdbd d379 bc3d 1a5c 723c 8a4f a03b
00000080: 6a82 5b3e 0730 9ebe 2aa1 fcbe c35b b6be
00000090: 5436 8dbe bace 53be c24d 173d 4aa9 913d
000000a0: 9805 233d 6407 8ebd 808c a3bd e13b 883c
000000b0: 9a6c 0b3e 4b6e 373d eb67 f4bd 3aa6 4b3e
000000c0: f39c 703e 0b78 9b3e f720 9bbe f25b 8cbe
000000d0: c6f7 e73d a679 a2bc 5840 9bbe 988e a03e
000000e0: d6ed 62bd fd30 473e 39cb 9d3e 7850 013e
000000f0: fb5e 103e 24e6 54be 8929 fbbe 350d 9dbe
00000100: 2126 76bc f757 8dbe ffe9 293e e4cb 0f3e
00000110: 9cd5 a9bd 3142 66be 4ce0 78bd 74d5 e3bd
00000120: 3c8e 8b3c 5858 aebc 8249 78bc fde8 4c3c
00000130: bb4e f1be 80b8 8cbe 16ad 62be 9a03 693e
00000140: 12a0 a83e ad43 d93e 1a1a 473e f672 173d
00000150: 4b94 df3e d460 813d cdcf ab3b 0b9b 2ebe
00000160: a004 343d b393 16be 9a52 3c3e c167 a5bd
00000170: 5ad1 b43c eab1 7dbd a198 f4bc 66e7 453e
00000180: 9f38 8fbd bc16 2d3e 4996 393e b4ac 433c
00000190: 3fff d5bd 4149 8abd b510 07bc d9d7 29be
000001a0: d814 69be b288 5f3e ef1f 91be cf19 233e
000001b0: 6f6e 53be 9d85 dd3c 2a81 b63e 7566 a0be
000001c0: edf6 1d3e b158 593e b044 973e ed0f a2be
000001d0: d420 a33d c649 37be f006 c43e 8953 3f3e
000001e0: e1f3 bc3c 6469 183d 1705 2e3e 773d c2bd
000001f0: 15b7 9bbe 6a0e 90be 2470 0a3e 98c9 343e
00000200: 60e2 93be 659f 0abe 1e40 e03b 384b 2b3e
00000210: 7354 063d 900f 683e e56d 2dbf 3d37 fdbd
00000220: 678f 183e ddf8 a43c 41a8 e1be a907 f1be
00000230: 4ecd 91be 2dbe a43d f480 98be 8207 493d
00000240: 228f a9bd 76ce a13e e539 0cbe 3784 2d3d
00000250: 60e7 02bf 97ea 323e 04ec 4bbc 8c6a 8f3e
00000260: abd3 c4be 06c4 f03b 97fd c6be bbc6 723e
00000270: 1962 c6bd 28b9 45be 9875 773e 5c87 043d
00000280: 5517 cd3d 271b e9be 36b1 8f3e b411 0fbf
00000290: 1d6a 1c3e 11af a33d f823 64be 7444 013f
000002a0: 3a7a 723e 5f7e ce3d b53c ee3d e502 e7be
000002b0: 6cf8 6b3e 6397 ed3e c405 e3be fb13 b33d
000002c0: 34df 5b3c 5f61 133d 80a6 023d dce2 8e3e
000002d0: 22bb 62be 6fdb 46bf 86f6 b5bd d645 8abc
000002e0: 043a a43e 2930 d13e 98a6 76be 0962 4cbc
000002f0: 707a acbd 7206 a23d dd1d 26be 6452 ee3e
00000300: 3f82 db3d 9c50 413e 7ce0 ee3d 2f9d 213e
00000310: 6431 bb3e 0099 d4bc 0849 633e 502c 1bbe
00000320: 4640 cf3d 0fb1 5ebe c721 3e3e f2c0 b1bc
00000330: 29ef 99be 9c37 8cbe 3ca3 833e b3d4 1d3d
00000340: 0bd9 c03e 2cec c0bc 5e7b cfbd f890 06be
00000350: 6a87 983e b7df 73be e839 0ebe d95f 9dbc
00000360: 4b5b 703d b03c 283e d97c abbd 7f28 6f3e
00000370: 7eff acbe 3722 4dbd d510 f93d d55c 60bd
00000380: fba3 8cbd f14f 9fbd 566a 2abd d00a 17bd
00000390: 48de c93d cb57 53be e0c1 0cbd 1797 b53e
000003a0: 8aa9 7e3e 22f6 10bf a2e6 56be f97f d3be
000003b0: e17f 8a3e 44e3 d83e 0af1 9b3e a68f d23d
000003c0: f7b8 42bc 0310 993e 441a 2bbe 1d23 d4be
000003d0: 622d 2bbd 344c acbe dc2c ea3d 9993 0dbf
000003e0: a483 293e 1778 be3d 9d10 dcbd 3ad6 8c3e
000003f0: 345f 1e3e 4410 d83d c973 dabe e69f 9bbe
0.37599567 -0.5061445 0.18528448 -0.14255951 0.068725325 0.20990674 0.10610079 -0.17497066
0.28351444 0.49290448 0.18713264 -0.012316981 -0.1825349 -0.25543305 -0.083988205 0.2549732
0.010147779 -0.017970627 -0.17852162 -0.32969123 0.120855056 -0.06711209 -0.049101442 -0.09476826
-0.06586771 -0.23614304 -0.44220158 -0.036612857 -0.1004947 0.092029236 0.014792467 0.0048922943
0.21436468 -0.30896017 -0.49341708 -0.35616884 -0.27580512 -0.20684329 0.03693939 0.071123675
0.039800256 -0.069350034 -0.079857826 0.016630115 0.13615647 0.044782918 -0.11933883 0.19887629
0.23497371 0.30365023 -0.30298588 -0.274139 0.11326556 -0.019833397 -0.30322528 0.3135879
-0.0554026 0.19452281 0.3081911 0.12628353 0.14098732 -0.20790917 -0.49055126 -0.3067414
-0.015023739 -0.27606174 0.16593169 0.14042622 -0.08292696 -0.22486188 -0.06076078 -0.11124697
0.017035596 -0.02128236 -0.015154244 0.012506721 -0.4713038 -0.27484512 -0.2213634 0.2275528
0.32934624 0.42434445 0.1944355 0.03697487 0.43667826 0.063172966 0.0052432776 -0.17051332
0.043949723 -0.1470478 0.18390885 -0.0807643 0.022072483 -0.06193725 -0.029857935 0.19326553
-0.069932215 0.16903204 0.18123735 0.011943031 -0.10449075 -0.06752253 -0.008243729 -0.16586246
-0.22761858 0.21829489 -0.28344676 0.15927814 -0.20647596 0.02704125 0.3564542 -0.3132817
0.15426226 0.2122524 0.29544592 -0.31652775 0.07965246 -0.17899236 0.38286543 0.1868421
0.02306551 0.037209883 0.16994129 -0.0948438 -0.30413118 -0.28135997 0.13519341 0.17655027
-0.28883648 -0.13537367 0.006843581 0.16727912 0.03279538 0.22662187 -0.6774581 -0.123640515
0.14898454 0.020138199 -0.4407368 -0.47076157 -0.28476948 0.08044086 -0.29785883 0.049079426
-0.082792535 0.3160283 -0.1369396 0.042362418 -0.511343 0.17472301 -0.012446407 0.28010976
-0.3844274 0.0073475866 -0.3886535 0.23708622 -0.096866794 -0.19308913 0.24165952 0.03235565
0.10014216 -0.45528528 0.2806489 -0.5588639 0.15274854 0.07992376 -0.22279346 0.50495076
0.23679438 0.10082697 0.11632673 -0.45119396 0.23043984 0.4640456 -0.44340336 0.08744045
0.013419915 0.035981532 0.031897068 0.27907455 -0.22141698 -0.7767858 -0.08884911 -0.016879003
0.32075512 0.40857056 -0.24086988 -0.012474545 -0.084217906 0.079113856 -0.1622233 0.46547234
0.10718202 0.18878406 0.11663911 0.15782617 0.3656112 -0.025951862 0.22195828 -0.15153623
0.10119681 -0.2174723 0.18567573 -0.021698449 -0.30065277 -0.27386177 0.25710475 0.038532924
0.3766559 -0.023550116 -0.10130952 -0.13141239 0.29790813 -0.23815809 -0.13889277 -0.019210743
0.058680814 0.164294 -0.08373422 0.23355292 -0.33788675 -0.050081458 0.121614136 -0.05477603
-0.06867214 -0.077789195 -0.041605316 -0.036875546 0.0985685 -0.20638959 -0.03436458 0.35466835
0.24869362 -0.5662557 -0.20986417 -0.41308573 0.2705069 0.4236089 0.30457336 0.10281305
-0.011884919 0.29895028 -0.16709238 -0.4143304 -0.041791327 -0.33651888 0.114343375 -0.5530334
0.16554123 0.09300249 -0.10745356 0.27507192 0.15466005 0.105499774 -0.42666462 -0.3039543

fc3.bias f4 [10]
00000000: 34fa b23d 0586 f13c 6902 ab3d 2d1d e1bc
00000010: bc77 b4bd a88b 9fbc a333 623e db3e 9b3d
00000020: a6ea 733e a94f bd3d
0.08739129 0.02948285 0.08350069 -0.027479732 -0.088119 -0.019475773 0.2209001 0.07580348
0.2381998 0.092437096
